best_policy.model (torch, 422077 bytes, 15 tensors)

conv1.weight f4 [32, 4, 3, 3]
000000 5b 4f 24 bd 87 5d a6 3e f1 c0 bd 3e af 20 bc 3e
       -0.04011474 0.3249323 0.37061265 0.36743686
000010 3f e6 29 3e 37 52 16 3d 80 68 bb 3e 00 70 c7 3e
       0.16591738 0.0366995 0.36603165 0.38952637
000020 10 4d a4 be 7d eb d2 bd 04 9d ba 3b 89 d9 38 bd
       -0.32090044 -0.10298822 0.0056949873 -0.045129333
000030 ad 31 1d 3e 40 6b 88 be 1f c3 6b bd ed f0 2f 3d
       0.15350981 -0.26644325 -0.05755913 0.042954374
000040 5b 49 3b be d3 b3 72 bd 04 aa e8 3d 06 99 24 be
       -0.18289702 -0.059253525 0.11360553 -0.16073999
000050 21 fd 03 3d 01 39 68 be 8d fc 39 be 72 cb 60 be
       0.032223824 -0.22677995 -0.18162747 -0.21952608
000060 51 13 ce bd b5 33 b2 bd 70 6c 77 3e 26 cc e8 bb
       -0.10062278 -0.087012686 0.2416246 -0.0071044145
000070 57 7a e9 bc 6d 86 ff bd a7 3b e4 3c f6 76 20 3e
       -0.028500719 -0.124768116 0.027860476 0.1567038
000080 f4 82 2e be 6e b9 1d be b2 fe 07 be 17 56 b3 3d
       -0.17042142 -0.15402767 -0.13280752 0.08756655
000090 73 bc 00 bf 91 eb 98 3e b1 8e a0 bd 8b e1 c1 be
       -0.5028755 0.29867223 -0.07839716 -0.37867388
0000a0 6c a2 be bc 8d 1e dd be 08 be 9c be db 36 1a be
       -0.023270808 -0.4318737 -0.30613732 -0.15059988
0000b0 5e 24 24 3f ea 99 03 be c3 3a 02 be 12 db 77 bd
       0.6411799 -0.12851682 -0.12717728 -0.060511656
0000c0 b4 85 64 bd e8 bc 87 be c2 28 c2 be 77 3c c5 be
       -0.05579157 -0.26511312 -0.3792172 -0.38522694
0000d0 b8 d5 6f 3e 81 35 b5 be b9 69 c0 bd d6 02 89 be
       0.23421371 -0.35392383 -0.09395165 -0.26759976
0000e0 d6 69 bc 3d 92 48 97 be 78 b0 10 be 47 20 33 be
       0.09199874 -0.29547554 -0.14129817 -0.17492782
0000f0 3d 39 59 3e 06 a6 54 bd b5 f8 92 bc 77 86 1d 3e
       0.21213241 -0.051916145 -0.017940858 0.15383326
000100 6c 6b 0a 3e f1 5f 80 bc c1 26 f5 3b 02 56 de 3c
       0.1351754 -0.015670748 0.0074814265 0.027140621
000110 4d 74 66 bc 9a df cf 3c d6 a5 ce 3d 91 73 58 be
       -0.014065814 0.025375176 0.100902244 -0.21137835
000120 da 24 8e be 6d c4 7c 3d f7 33 27 3e 50 b1 87 be
       -0.2776249 0.061710764 0.16328417 -0.26502466
000130 a1 fc e6 3d cc 72 89 bc 4b ca fd be 4c 36 2c be
       0.11278654 -0.016778372 -0.495684 -0.16817588
000140 a1 9d ea be a7 35 e1 bc d6 53 9d 3e 9a ee 9a be
       -0.45823386 -0.027491404 0.30728024 -0.30260164
000150 1a a6 cd be cb c4 da 3e a9 bf b4 3e 28 89 dd 3e
       -0.40165788 0.42728266 0.35302475 0.43268704
000160 4b d3 55 3d e5 c5 1c bf 1b 32 68 3d 2a b6 b0 bd
       0.052203458 -0.61239463 0.05668841 -0.08628495
000170 79 ee 5c bd d8 9a 80 3d 0a 7b 57 bd bd 61 d2 bc
       -0.053938363 0.06279534 -0.052607574 -0.02568137
000180 73 70 5c bd 6f 45 c7 3c df ca 06 3e df c1 0f 3d
       -0.053818177 0.0243251 0.13163327 0.035097
000190 af 5e 0a ba e9 a7 16 3e f3 b7 7a 3c ec f7 5d bd
       -0.0005278391 0.1471249 0.015302646 -0.054191515
0001a0 e9 44 ae bc fc 1c a4 bd 7e f8 15 3e bf 40 40 3d
       -0.021273093 -0.08013341 0.14645573 0.046936747
0001b0 e4 fe 3f 3e f0 75 a5 be a3 9e b2 3d a3 db e3 3e
       0.18749577 -0.32316542 0.08721664 0.44503507
0001c0 63 b9 33 3d 04 2f 8f be c1 77 53 3e e6 fa 91 3e
       0.04387797 -0.27965558 0.20651151 0.28511733
0001d0 be cc 8b 3d 9d 9b 83 3e 76 f9 0c 3e e1 41 f2 3d
       0.06826161 0.2570466 0.13767037 0.11828972
0001e0 36 a4 0a be 26 86 74 be 1a bc 27 be a7 2f f4 bd
       -0.13539204 -0.23879299 -0.16380349 -0.119231515
0001f0 45 83 4c be 7d 38 8a 3e b5 1b f8 bd 7b 26 7f 3c
       -0.1997195 0.26996222 -0.1211466 0.015573139
000200 b3 48 ac 3d af 49 7d be 53 ff 7f bc c4 fe 07 bd
       0.08412304 -0.2473514 -0.015624839 -0.033201948
000210 10 dd 69 3d bc 7c c3 bc 2b 75 f8 3a 14 b0 b7 bb
       0.057095587 -0.023863189 0.0018955817 -0.005605707
000220 06 c1 a2 bd 4d 5a b3 3d 59 28 b1 ba 31 60 5a 3d
       -0.079469725 0.08757458 -0.0013516053 0.05331439
000230 42 63 12 bc 8e 5a 66 bd 55 be ee 3d bb 4d 3d bd
       -0.008934798 -0.056238703 0.11657397 -0.046216708
000240 6f b9 c7 be bd 1c c2 3d 7f c5 b7 3e b4 60 a2 3d
       -0.39008662 0.09478138 0.35892865 0.07928601
000250 98 6a b1 be 83 4e ca 3e 1e 2e 03 bf 4b e5 e6 3d
       -0.34651637 0.39513025 -0.51242244 0.11274203
000260 12 00 0e bf 97 f0 9e bc 53 f8 8d bb 84 c9 03 3e
       -0.5546886 -0.019401832 -0.004332581 0.12869841
000270 99 42 03 bf 78 f3 bc be 12 61 6d be cb d4 fe 3d
       -0.51273495 -0.36904502 -0.2318156 0.12442931
000280 87 c1 a9 bd 26 92 4c be d4 4e b8 3c 2c f0 16 bb
       -0.082888655 -0.19977626 0.022498526 -0.0023031337
000290 f3 69 76 bc 9a ce 42 3e be b2 f1 3c b0 27 dd bd
       -0.015039909 0.19024125 0.029504176 -0.107985854
0002a0 86 7f 21 3d a4 c3 8e 3c 4d 98 cc bc fc 30 73 bd
       0.039428256 0.017427273 -0.024974966 -0.059372887
0002b0 09 37 12 be 98 b9 0e 3e 2a 51 aa 3d 67 ae 12 3e
       -0.14278807 0.13937986 0.08316262 0.14324342
0002c0 83 03 24 bd 17 7c 7b 3d d5 e4 e5 3c c9 0e 8c 3d
       -0.04004241 0.06139764 0.028063217 0.068387575
0002d0 fc 6f 70 3e 87 8b 4e 3e cb 0c 48 be 1a 4a c3 bd
       0.23480219 0.20170413 -0.1953613 -0.09535618
0002e0 ab 5e 51 3d 43 49 b8 3d 25 bf 6e bd 85 10 94 3e
       0.051115673 0.089983486 -0.05828776 0.28918853
0002f0 6e c3 59 3d e2 24 a4 3e 72 13 91 be d6 0b 54 3e
       0.053164892 0.3205939 -0.28335148 0.2070764
000300 39 62 fe 3d d8 7a 28 3e d1 a5 9f be d7 48 56 3e
       0.12421078 0.16453111 -0.31181195 0.20926224
000310 34 f7 83 3e 6f 42 a3 3e e2 93 d7 bd 92 6a 83 be
       0.2577454 0.31886622 -0.10526253 -0.25667244
000320 2d 32 44 be 9f 9e cf bc 39 eb 46 3a d1 a3 37 bb
       -0.19159766 -0.025344191 0.00075881515 -0.0028021226
000330 68 dd 7d be b3 b8 69 bc e6 2e 05 be 93 57 47 be
       -0.24791491 -0.014265227 -0.13006172 -0.19467
000340 b4 6c 79 be 29 f5 c4 be 57 7c 82 3d cd 42 0b bd
       -0.24357873 -0.38468292 0.06371372 -0.033999253
000350 ce 14 36 be dd bd 07 3e b0 ce 30 3e 9b ca 97 be
       -0.17781374 0.13256021 0.17266345 -0.29646763
000360 05 24 e9 3e 7e 2b 9d 3b 28 7d 4d 3e e9 08 02 be
       0.45535293 0.0047964444 0.20067275 -0.12698711
000370 4b 9e 8d 3d 1c 4d 31 be 65 c8 ec 3d d1 be c9 be
       0.069149576 -0.17314571 0.1156166 -0.39403394
000380 20 af 2d 3e 0e ed ad 3e 9f 3b a6 3d d0 10 25 be
       0.16961336 0.3396992 0.081168406 -0.16119695
000390 55 33 8a 3e 8d 31 4c 3e ce ec d5 3d b8 96 df be
       0.26992288 0.19940777 0.104455575 -0.43669677
0003a0 e4 3c 49 be 83 84 03 3f 60 11 6a bd 92 ce f8 bd
       -0.19652134 0.5137407 -0.057145476 -0.12148775
0003b0 6b 37 c4 3b 5e ff 9a bd 29 87 3b 3d 8c 57 15 be
       0.0059880516 -0.07568239 0.045783196 -0.14584178
0003c0 41 b9 f7 3d 10 2c 89 3c 76 bb 72 bd ea ca cb 3d
       0.12095881 0.016744643 -0.059260808 0.09950812
0003d0 8f cb 23 be b1 61 48 3d 6d 77 c1 bd ac 96 e7 3c
       -0.1599562 0.04892129 -0.09446607 0.028270088
0003e0 8a d4 14 3e 0e 5a 12 3e 57 c4 05 be ea cf 2b 3e
       0.14534202 0.14292166 -0.13063179 0.16778532
0003f0 54 f4 89 bd a9 e8 cc be e2 84 25 bd 18 73 46 3c
       -0.06736055 -0.40021256 -0.04040993 0.012112401

conv1.bias f4 [32]
000000 6f 3c 3a be f3 8a 97 bd b5 23 2a bd 7d b3 3c be
       -0.18187116 -0.07399549 -0.04153796 -0.18427844
000010 e1 45 f6 3d 79 48 58 be 8b f5 3c be 00 86 8d b9
       0.12025047 -0.21121396 -0.18453042 -0.00026993454
000020 f7 c8 33 3d a3 f6 a0 3d e5 ac 15 3e 7b 55 42 3d
       0.043892827 0.07859542 0.14616735 0.0474448
000030 2b 4a 8e bd c2 ee 73 be f5 73 f6 bc 89 16 a2 bd
       -0.0694774 -0.23821548 -0.03008459 -0.079144545
000040 d9 cd b9 3d 22 cc 2e be 23 10 b7 bd 67 b8 23 be
       0.090724654 -0.17070058 -0.08938625 -0.15988313
000050 65 dd 5b be 15 d7 3f be 09 d6 09 be 7b 7c 40 be
       -0.21471174 -0.18734391 -0.13460554 -0.18797486
000060 62 d4 f3 bd e1 35 73 be 2d c5 c4 bd d1 da 53 be
       -0.11905743 -0.23751022 -0.09607921 -0.2068894
000070 ae 9e e3 bc cc 80 70 bd 5b a3 f4 bc f6 d4 ab bb
       -0.027785625 -0.05871658 -0.02986305 -0.005243893

conv2.weight f4 [64, 32, 3, 3]
000000 e0 c6 a1 3d c7 a4 0d 3e 9f 06 9c 3c f4 3b ad 3c
       0.078992605 0.13832389 0.019046126 0.021146752
000010 85 c1 8f 3d 6f 97 c5 3d 1f d7 0a 3e 8e 83 18 be
       0.07019333 0.09648024 0.13558625 -0.14893934
000020 fe 05 87 3d 74 0b 11 3e 8f e8 dd bd 0d 23 67 3d
       0.0659294 0.14164525 -0.10835373 0.05642991
000030 b5 9d b6 bd 0a a7 2b bc 77 9f 05 bd d5 92 b8 bd
       -0.08916799 -0.010476837 -0.03262278 -0.09012381
000040 b9 0e d5 3c 12 9a 12 be f1 ec 1d be 26 b9 01 be
       0.026007997 -0.14316586 -0.15422417 -0.12668285
000050 45 3f dc 3d fc 0b 04 3e 27 83 49 bd d8 d4 6d bc
       0.10754255 0.12895197 -0.049197342 -0.014516078
000060 21 18 44 bd 3b bf 2c 3d 93 dd e6 3d 7b a6 1c 3e
       -0.047874574 0.04217456 0.11272731 0.15297882
000070 85 ec ad 3c 5d 2a 84 3d cc f0 98 be 57 8d 22 be
       0.021230945 0.06453393 -0.29871213 -0.1587423
000080 12 7d 39 bb 2f 47 72 bd 82 b4 86 bd 2b 68 b2 3d
       -0.0028303307 -0.059149917 -0.06577398 0.08711275
000090 8b 00 de bc 89 42 de 3d a3 1c 95 3b 57 98 d9 3c
       -0.027099868 0.10852534 0.004550533 0.0265619
0000a0 31 d4 e7 bd 00 f7 93 bd 5a 89 b0 3d da 44 c4 3d
       -0.11319769 -0.07224846 0.08619948 0.09583445
0000b0 db 9f 80 3d 32 a5 12 3e d5 6e ca bd 54 50 1c be
       0.0628049 0.1432083 -0.09884421 -0.15265018
0000c0 bc 1b f6 bb 04 c3 41 3e 45 5b 20 be 22 f8 cf 3d
       -0.0075106304 0.18922049 -0.15659817 0.101547495
0000d0 32 08 8a 3d 96 6d 02 be 7e 4e a9 3d 83 d2 8c bb
       0.067398444 -0.12737116 0.08266924 -0.004297556
0000e0 2e ba 9e 3d d7 69 17 be a0 10 91 bd de 70 11 bd
       0.07750355 -0.14786468 -0.07083249 -0.03550803
0000f0 13 f3 64 3d 08 bc 3c bd 3f d5 a7 3e 5c b2 84 bd
       0.055895876 -0.046077758 0.3277988 -0.06479332
000100 49 0f 83 bc 3f ca 00 3e c2 79 85 bd 3f 81 da bd
       -0.0159985 0.12577151 -0.06517364 -0.10669183
000110 8a 4b cc bc 73 9f 93 3d 17 df dc bc aa e6 2a 3e
       -0.024938364 0.07208147 -0.026961846 0.16689554
000120 58 b3 fc 3d 00 8e bc 3d 28 48 8c bc 88 b8 fa 3d
       0.123388946 0.09206772 -0.01712425 0.12242228
000130 98 f7 f5 bb 1c 7c 98 bd 2b f3 1c 3d 6b a6 d0 bd
       -0.007506322 -0.07445547 0.03831784 -0.10187992
000140 67 ed bd 3e 49 7f bb bc b5 fb 39 3e 82 5c 44 3e
       0.37095186 -0.022887843 0.18162425 0.19175914
000150 00 32 03 bd 46 9b 83 3d 6f 2f 26 be 9b c8 f6 bc
       -0.032030106 0.064261004 -0.16229032 -0.030124953
000160 93 89 cc bd 67 8a 12 be d4 4d 21 3e ab 99 4b 3e
       -0.09987178 -0.14310609 0.15752345 0.19882838
000170 ad e4 12 3e 32 b5 22 3e 1b ce 34 3e 9e 42 3f bd
       0.14345045 0.15889433 0.17656748 -0.04669439
000180 66 b2 ac bd 86 4f 4f 3d 2c 50 c5 3d 96 ad d7 bd
       -0.08432464 0.05061295 0.09634432 -0.10531156
000190 5c 2a 0d be 47 11 c1 3c 98 7d d4 3a a3 1b c1 bc
       -0.1378569 0.023567809 0.0016211746 -0.023572749
0001a0 0c 81 1f be 1d 84 8b be db 37 2d 3d ee b8 7e 3e
       -0.15576571 -0.27249232 0.042289596 0.24875233
0001b0 f3 7d 56 3e 49 e3 39 bd 85 ff 6d bc 7f 26 96 3d
       0.20946483 -0.04538277 -0.014526253 0.07331561
0001c0 07 50 c2 3c b0 e4 af bd c6 cc 54 3c 1e 4f a0 bd
       0.0237198 -0.085885406 0.012988275 -0.078275904
0001d0 58 1c b4 3c f6 b5 f2 3d 8f 41 1a 3d 40 a7 c3 3d
       0.021986172 0.118511125 0.037660178 0.09553385
0001e0 23 27 0b 3e 90 ad 3f 3e 71 b9 9a bb f8 d9 83 3d
       0.13589148 0.18718553 -0.0047218134 0.064380586
0001f0 1e 90 3a 3e 1c 71 fe bd 38 73 81 3a 87 78 2d bd
       0.18219039 -0.12423918 0.0009876257 -0.042351272
000200 93 aa 8b 3d 38 c7 86 be 2e 72 22 be 2e 6d 01 be
       0.06819644 -0.26323867 -0.15863869 -0.12639305
000210 dc 57 61 bd 9f 1b 9d bd 0d f8 99 3e b3 9e d6 3b
       -0.05501543 -0.07671284 0.3007206 0.00654968
000220 b0 6d af 3d 3f 71 86 3d 0f cd 80 3e f3 20 19 be
       0.08565843 0.06564569 0.25156447 -0.14953975
000230 cb 25 a4 bd d9 78 b7 bd 8b 08 e6 bb 4b bf bb 3d
       -0.08015021 -0.08958597 -0.0070200614 0.091673456
000240 3c 5f f1 bd 40 0c 97 bd 12 50 80 3e d7 c5 dc bd
       -0.11785743 -0.073753834 0.2506109 -0.107799225
000250 48 eb d8 bd 20 fe b0 3d 86 73 af 3c 79 f6 94 bd
       -0.10591751 0.086422205 0.02141739 -0.072735734
000260 85 39 dc 3d 12 f2 e8 3c 13 39 fb 3d b5 77 63 bd
       0.107531585 0.02843574 0.122667454 -0.055534083
000270 a4 54 c0 bc 0d a6 1c 3d 18 aa da bd 16 63 d4 3d
       -0.02347786 0.038244296 -0.10676974 0.10370462
000280 ba 2a 62 3c 22 2f d3 bb 5e 07 07 be fb a4 04 be
       0.013804132 -0.0064448277 -0.13186404 -0.1295356
000290 d1 be 46 3e 74 43 1b be f6 c2 f6 bd ce ee a9 bb
       0.19408728 -0.1516245 -0.120489046 -0.0051859384
0002a0 87 e7 1d 3d 11 58 f7 3d c4 55 05 3e fd f7 ed 3d
       0.03855088 0.12077344 0.13020998 0.11619566
0002b0 13 c8 c2 3d f5 48 17 3e 76 65 d5 3d 0b b0 92 3c
       0.095108174 0.14773925 0.10419743 0.01790621
0002c0 b7 1f 65 3e 30 42 1c 3e da 69 38 3e a5 cf 95 bd
       0.2237538 0.15259624 0.18009129 -0.07314996
0002d0 f3 51 a4 bd 60 86 6f 3d 19 da 56 be 52 92 21 bc
       -0.08023443 0.05847776 -0.20981635 -0.009861546
0002e0 42 ce 9c 3d 68 06 fa bc c8 7d e2 bd 40 36 76 bd
       0.07656528 -0.030520633 -0.11059147 -0.06011033
0002f0 9a 4a 91 be 5c 5a bb bd fd 9e b9 be 08 35 7c 3d
       -0.2837723 -0.09148094 -0.3625411 0.061574012
000300 c1 6c 30 3c 06 a7 eb 3d 51 e1 2e 3e 2a ea 28 3e
       0.010768116 0.115064666 0.17078139 0.16495577
000310 b0 36 bd 3d c7 db 8b bd 7a b4 3e 3d a8 1b 98 bc
       0.092389464 -0.068290286 0.046558835 -0.018567875
000320 d4 19 0b 3e 93 b6 93 3d 76 d2 12 be 32 af 57 bd
       0.13584071 0.07212558 -0.14338097 -0.052657314
000330 f2 71 40 3e 3a 89 ff bd 4a 5e a7 bd c0 78 1e 3e
       0.18793467 -0.12477346 -0.08172281 0.1547575
000340 d3 25 dd bd 34 c5 52 3e 40 e5 9a bd 05 b3 cc bd
       -0.1079823 0.2058304 -0.07563257 -0.09995083
000350 32 9e 86 3c 1d b2 27 3d d3 21 68 bd 04 25 16 be
       0.016432855 0.040941346 -0.056672882 -0.14662558
000360 fb 62 f2 3d 83 da ef bb 73 83 93 3c e7 63 ca bd
       0.11835285 -0.00731975 0.018007016 -0.09882336
000370 cd 08 77 3b 0b e4 31 3c 42 ae b0 bd e9 bc c4 3d
       0.0037694455 0.010857592 -0.08626987 0.09606344
000380 2d ca d2 bb 44 8f 65 3e ce 89 c3 3d 7e 7e 4e 3e
       -0.0064327926 0.22417933 0.095477685 0.2016544
000390 2b 2d 9b 3c 6b 43 8a 3e 64 0e 7f 3e d7 0c 12 3b
       0.018942436 0.2700456 0.24907833 0.0022285485
0003a0 29 d2 7a 3e e7 c7 8f bd 61 5e 63 bc 7d 64 a5 bd
       0.24494232 -0.0702055 -0.013877482 -0.08075807
0003b0 d6 48 4a 3e af 8b 83 bd 44 6d f2 bd 76 cf 1c bd
       0.19754347 -0.06423127 -0.11837247 -0.038283788
0003c0 7a 52 9e bd 20 45 b1 3e 3f e5 80 bb f6 21 f0 3c
       -0.07730575 0.3462305 -0.0039335783 0.029313069
0003d0 c2 ef c5 3d 5c 49 4a be 4d 06 0f 3e 4d 44 ae 3e
       0.09664871 -0.19754547 0.13967247 0.34036484
0003e0 a6 fa 89 be 7e 24 ab be 21 a9 95 3d f7 72 7e be
       -0.26949042 -0.3342628 0.073076494 -0.24848543
0003f0 a5 76 d9 3d ba 59 1a 3d 43 78 59 3e d2 dd 20 3e
       0.10618333 0.037683226 0.21237282 0.15709618

conv2.bias f4 [64]
000000 a3 d5 3a bd 13 d9 e5 bd b3 2e 0f be 0f f4 1b bc
       -0.045613896 -0.11223044 -0.13982658 -0.009518637
000010 15 78 1a bd b2 6e ab bc fe 97 08 bc 7f 56 96 bd
       -0.037712175 -0.020926807 -0.008337019 -0.073407166
000020 df 88 1a bb fe d6 2e be 32 42 63 bd 9e 6f ff bc
       -0.0023580117 -0.170742 -0.05548305 -0.031181153
000030 e3 eb 14 be 8f 89 e4 bc 7a 13 12 bd 4f 1c 04 3d
       -0.14543109 -0.027897624 -0.035663106 0.03225356
000040 ac 33 cf bc 39 d0 4f 3c 12 94 b6 bd 13 b7 9d ba
       -0.025293194 0.0126839215 -0.08914961 -0.001203271
000050 d1 15 02 bb 6b ce 10 bd 53 af e3 bd 3f 5a ff 3c
       -0.001984943 -0.035353106 -0.11117425 0.031170962
000060 60 9a 83 3d 9e df 5a bd fd 9e ea bc 6d bd c4 bd
       0.06425929 -0.053435914 -0.028640265 -0.096064426
000070 39 c3 e5 bc c3 d3 62 bd 0d 38 88 bc e7 84 3e 3b
       -0.028047191 -0.055377733 -0.01662829 0.0029070915
000080 60 f5 56 3d a6 2c ff bd 0a a7 81 bd c4 f8 8f bd
       0.0524801 -0.12459688 -0.06330688 -0.0702987
000090 80 d5 99 3d 40 21 32 be 45 26 be bc 63 2b 88 bd
       0.07511425 -0.17395496 -0.023211608 -0.066489
0000a0 90 da d8 bd 0b 9a a8 bd 52 53 f2 bd 22 3c 9b bd
       -0.105885625 -0.08232506 -0.11832298 -0.07579829
0000b0 33 fa 40 bc e5 f9 28 bd e9 bd 19 bd 66 b0 d3 bd
       -0.011778402 -0.041253943 -0.037534628 -0.1033638
0000c0 a8 cb c9 bd 62 19 26 bd 31 d9 4c be aa a5 3d be
       -0.098532975 -0.04055155 -0.20004727 -0.18520227
0000d0 0b 57 1e bd 66 a0 24 be fa c3 de 3c f2 c0 8f bc
       -0.03865723 -0.16076812 0.027193058 -0.017548058
0000e0 60 40 95 bd 9e 7e 01 be ce 28 4b bd 14 dc 24 be
       -0.07287669 -0.12645957 -0.04959946 -0.16099578
0000f0 b7 96 0f be 73 d3 01 bd 4d 09 ff bc 59 f4 81 bd
       -0.14022337 -0.031695794 -0.031132365 -0.06345434

conv3.weight f4 [128, 64, 3, 3]
000000 44 67 33 3e 39 c1 84 3d 82 68 55 3d 82 75 0d 3d
       0.17519861 0.06482167 0.05210162 0.034535892
000010 23 3e 6b 3c 31 7d 35 3c 1b f6 17 3c 18 4d fb 3d
       0.014358076 0.011077211 0.009274985 0.12270564
000020 89 ec d9 bd 93 27 00 be 7d 7b b8 3c de 42 d3 bc
       -0.106408186 -0.12515096 0.022519821 -0.02578872
000030 96 a6 80 3d a2 70 d3 3c 61 5a 9c 3d 1f 7a 0b 3e
       0.06281774 0.025810543 0.07634426 0.13620804
000040 07 23 1c be 05 26 2d be 6c ce d0 bd 15 34 56 be
       -0.15247737 -0.16909035 -0.10195622 -0.20918305
000050 8b c4 16 3d ac 6b e7 3d b2 7c 1a be e9 08 af bd
       0.03680853 0.11299834 -0.1508663 -0.08546621
000060 d1 c8 d3 3c a0 40 95 bd 7f 41 bb 3d 54 be da bd
       0.025852593 -0.07287717 0.09143352 -0.106808335
000070 19 c8 46 3c 5a 7d 20 3e da 76 79 be 0c a1 11 bd
       0.012132668 0.15672818 -0.24361745 -0.035553977
000080 fa bd 2b be d5 5d ca 3d 8b 01 d7 3d 3e 43 2a be
       -0.16771689 0.09881178 0.10498341 -0.16627213
000090 20 5e 14 bd e5 72 5a bd e7 0f 0d be 91 f5 d4 bd
       -0.036222577 -0.05333223 -0.13775598 -0.103984006
0000a0 80 97 36 be d5 31 2b 3d ac 75 52 3d 17 ca 18 bd
       -0.1783123 0.04179557 0.051381752 -0.037302103
0000b0 da 82 ec 3b d6 03 d8 36 5a 3a 4a 37 6d 71 21 37
       0.007217747 6.437748e-06 1.2053724e-05 9.622757e-06
0000c0 17 1e cb 36 ab ef fb b5 27 e1 00 37 27 86 5c 38
       6.0533744e-06 -1.877071e-06 7.681817e-06 5.2577027e-05
0000d0 0a de fc 37 8e 3a a2 b7 0e 19 2a 00 34 6d 05 80
       3.0144136e-05 -1.9339172e-05 3.866079e-39 -4.98352e-40
0000e0 c0 2b 23 80 ed ac 1e 80 bf 1d 46 80 50 a8 42 00
       -3.229937e-39 -2.817099e-39 -6.439156e-39 6.121522e-39
0000f0 1c dc 97 09 f1 c0 a9 22 e3 11 3c 80 fb f9 da 3c
       3.6558918e-33 4.6011826e-18 -5.516546e-39 0.026730528
000100 b6 3b 02 3e 76 76 65 bd 1e 8a ed bd 7a b3 1a 3e
       0.1271809 -0.056021176 -0.115986094 0.15107527
000110 96 66 be bd b4 b9 02 be e7 8b dd bd bf f6 c2 bb
       -0.092969105 -0.12766153 -0.108177 -0.0059498246
000120 dd a3 b8 ba 60 84 26 39 20 88 d3 39 67 56 09 38
       -0.0014086921 0.00015880307 0.00040346477 3.2743814e-05
000130 c5 e8 cd b8 1f 24 78 ba e8 e2 95 b9 4b c1 ea ba
       -9.8185184e-05 -0.00094658317 -0.00028588553 -0.0017910389
000140 d6 6c 66 bb 40 67 da bd bc 7a 0a 3d 95 69 eb 3d
       -0.0035160086 -0.106642246 0.033808455 0.114947475
000150 ce b0 e9 bd 50 da 91 3d 3d 57 93 bd 45 28 9c 3d
       -0.11410676 0.07121718 -0.07194374 0.07624868
000160 81 59 4b bc 9c 32 97 3d d1 a6 40 be 3e aa f0 3d
       -0.012411476 0.073827 -0.18813635 0.11751221
000170 04 d9 a5 bd d6 c7 82 3d 7f f0 39 3d 7b af db 3d
       -0.08098033 0.06385772 0.04539537 0.107268296
000180 a5 c4 46 3e b8 a7 f8 bd 7a e1 a0 3d 62 63 d7 3d
       0.19410951 -0.12141365 0.07855506 0.10517003
000190 5d 5c f6 3d 91 0c 15 3e 08 b8 a7 bc f8 97 84 be
       0.12029336 0.14555575 -0.020473495 -0.25897193
0001a0 13 52 02 3e fc af dc 3d 42 15 a1 3c 53 50 05 3e
       0.12726621 0.10775754 0.019663457 0.13018923
0001b0 66 d1 4e be 54 f4 62 3e 7d 1a dc bc 32 31 d8 bb
       -0.20197067 0.22163516 -0.0268681 -0.0065976614
0001c0 72 f9 62 3e 4a 0f 2a bd 22 44 ca bd 20 9d d5 ba
       0.22165468 -0.041518487 -0.098762766 -0.0016297437
0001d0 73 65 c0 3c ca 68 8b 3d 65 f0 2e 3d a1 1d e2 bc
       0.023485875 0.06807096 0.042709727 -0.027602019
0001e0 15 9b 73 bd db b1 b4 3d 7c db cc bd 85 97 20 be
       -0.05947407 0.08822986 -0.10002801 -0.156828
0001f0 0b 4b 1f be fe 6a 90 bd 3b ab be bd 95 7d 15 be
       -0.1555597 -0.07051657 -0.09310003 -0.14598687
000200 cc 35 a7 3b 40 ea a1 3c 1a d4 d3 bd e9 94 c1 3c
       0.0051028486 0.01976502 -0.103431895 0.023630576
000210 6e 5b dd bd ff 12 8b bc 70 a3 c3 3d 58 e0 b4 3d
       -0.108084545 -0.016976831 0.095526576 0.08831853
000220 f5 13 16 3d cc e6 b1 3d 75 ee c1 bd 56 9d c5 bd
       0.036640126 0.08686599 -0.0946931 -0.0964915
000230 fa ce 28 3d e8 d9 39 be 34 ef fa bd 33 c8 1e be
       0.041213013 -0.18149531 -0.122526556 -0.15506057
000240 82 14 4a be a1 b3 f5 bd f3 99 f5 3d 07 6c 08 bc
       -0.19734386 -0.11997152 0.11992254 -0.008326537
000250 fe ea 0b 39 82 7b 8e bd b7 f2 33 bd 23 4e b2 3d
       0.00013343614 -0.06957151 -0.043932643 0.0870631
000260 80 59 af 3d 82 9c d7 3d ac 2a 1b be a3 d6 b3 3c
       0.08561993 0.10527898 -0.15152997 0.021952933
000270 ca 14 67 bc 9b 25 ba bc fd 76 f6 bc 40 1a 51 bd
       -0.014104078 -0.02272301 -0.030086035 -0.051050425
000280 cc 1d 0b 3d 48 16 a1 3c 87 96 95 3d 97 ea 70 3e
       0.033963963 0.019663945 0.073041014 0.23526989
000290 5d dd ae 3d 1e 3b f3 bc 03 87 79 3c 8b 2c 2b be
       0.085383154 -0.029691275 0.015229943 -0.1671621
0002a0 c9 a0 90 3d 72 22 10 be 28 77 0b be 7d 65 4b 00
       0.07061917 -0.1407564 -0.13619673 6.92407e-39
0002b0 c4 d4 0a 00 0c 7c 02 80 96 1b 50 80 e9 eb 0c 80
       9.94681e-40 -2.2817e-40 -7.356736e-39 -1.186655e-39
0002c0 fc 80 27 00 89 c4 11 00 92 c5 12 00 67 f1 1c 80
       3.627855e-39 1.631707e-39 1.723914e-39 -2.657993e-39
0002d0 6d 33 8e be fc c4 43 be 94 09 35 be ea 8f b9 bd
       -0.2777361 -0.19118112 -0.17679435 -0.090606526
0002e0 24 d5 40 be d2 bd 04 3e 61 59 67 3d 54 34 4c be
       -0.18831307 0.12963036 0.056481723 -0.19941837
0002f0 f5 a6 37 bd bb 5e 3a bd 96 b2 f1 bd 4c 00 d2 3c
       -0.044836957 -0.0455005 -0.11801641 0.025634907
000300 b1 23 ee 3d 59 6b 07 be c0 61 45 be 24 e3 82 3d
       0.11627901 -0.13224544 -0.1927557 0.0639098
000310 6f 1d d0 bd 58 41 f6 bd e1 53 ea bd f9 81 7b 3d
       -0.10161864 -0.12024182 -0.1144178 0.06140325
000320 ea 6a 5c be 80 97 2b 3e 83 3c a0 bd 44 1e b6 bc
       -0.2152516 0.16757011 -0.07824042 -0.022231229
000330 7c 7a 76 be 6d 61 88 3d c4 b1 36 bc 75 d9 b6 bd
       -0.24070162 0.066592075 -0.011150781 -0.089281954
000340 d7 1a 69 bd 58 27 50 be f0 0d ac 3d 88 b6 41 be
       -0.056910362 -0.20327508 0.08401096 -0.18917286
000350 da 59 d6 bd 17 e6 2f be ce 46 c2 bd 27 20 5e bc
       -0.104663566 -0.17177616 -0.09486161 -0.01355747
000360 94 64 27 be 12 c8 74 3d 21 86 15 3e ff 7f d3 3d
       -0.16346961 0.059761114 0.14601947 0.10327148
000370 56 87 90 be d0 a1 58 be f9 00 4e be 35 7f cd 3d
       -0.28228253 -0.21155477 -0.20117559 0.100340284
000380 eb 58 dd bd 90 a4 ca 3d 09 fd 7a 3d 22 c0 b5 bc
       -0.108079754 0.09894669 0.06127647 -0.022186343
000390 7f da 52 be 7d b5 d0 bd 7b 26 0a 3d 67 c7 9c be
       -0.20591162 -0.10190866 0.033728104 -0.30620882
0003a0 eb fd bb bd 18 46 e1 bd d0 21 d3 bd af 54 1a bd
       -0.091792904 -0.109996974 -0.103091836 -0.037678417
0003b0 d5 e1 80 bd 36 9f 09 3d dd 1d 83 3d 24 3a fc 3d
       -0.06293074 0.0335991 0.0640218 0.12315777
0003c0 fb a1 a1 bb ec 9a 24 be 0d 22 27 3d ee d0 31 bd
       -0.0049326397 -0.16074723 0.040803958 -0.04341214
0003d0 17 8c 01 3c fd 50 39 be 30 59 0c be 5a e6 b2 bd
       0.007906935 -0.18097301 -0.13705897 -0.08735342
0003e0 9f 1a 99 3e cf bc 59 bc 30 d7 fc bd bd af b2 be
       0.29903123 -0.013289644 -0.12345731 -0.34899703
0003f0 48 94 87 3e f5 ae 46 3c 6a 86 b4 bd 8a 24 91 3d
       0.26480317 0.012126674 -0.088147 0.070870474

conv3.bias f4 [128]
000000 cd e6 18 be 6e f2 f7 3c 7e 89 bc bd e9 c2 23 bd
       -0.14931794 0.030266967 -0.09205912 -0.039980803
000010 8f 12 f9 bb c8 15 20 b8 cd 06 30 3d d2 02 10 3e
       -0.0076010893 -3.8167258e-05 0.042975236 0.14063576
000020 4b 67 5b be 1f de b2 ba fb 85 f3 bb d7 47 0d 3c
       -0.21426122 -0.001364652 -0.007431743 0.008623085
000030 59 f1 0d 3c fc d5 4a be 71 af f0 3d fa cd 9d bd
       0.008663499 -0.19808191 0.11752213 -0.077053025
000040 dd 1e 2c 3c 8b 6c c5 bd c8 70 a9 bc 94 47 9f bd
       0.010505405 -0.096398436 -0.020683661 -0.07777324
000050 ad c9 e6 b8 91 fb 70 bb 7a f8 32 bd 2e 5d 08 be
       -0.0001100482 -0.003677104 -0.043693997 -0.13316795
000060 9a 9f 80 bc f5 e5 a1 bd 57 7a 7d 3b 49 88 2b 3e
       -0.015701104 -0.07905189 0.0038677657 0.16751207
000070 5a 27 d0 bd 13 67 31 bd e1 94 d1 3d 1e 82 64 ba
       -0.10163756 -0.04331119 0.102334745 -0.0008716899
000080 57 f6 8b bd a7 b9 0c be 5c 28 05 be 26 b2 3e be
       -0.06834095 -0.13742696 -0.13003677 -0.18622646
000090 c7 be a8 bc c9 b8 76 bd 22 9f 8a bb 18 fa e9 3d
       -0.020598782 -0.06023482 -0.004230396 0.11424655
0000a0 be 90 3d b9 88 61 23 3e 24 ef 04 ba 8e 91 ce bd
       -0.00018078365 0.15955174 -0.0005071035 -0.10086356
0000b0 9a 37 8f bd a0 be a9 3e 95 d6 d3 b6 ef a2 47 3e
       -0.06993027 0.33153248 -6.3132707e-06 0.19495748
0000c0 93 68 02 bc f1 8b bc bc 3e e2 95 bd 7d d3 27 b9
       -0.007959503 -0.023015948 -0.07318543 -0.00016005147
0000d0 8d 4a f5 bc 7a 7b ec 3b df d1 39 bd 5f fb 08 3e
       -0.029942775 0.007216868 -0.045366164 0.1337714
0000e0 98 7b 63 bd dc bf 40 bd 50 25 83 bd 8a 67 db bc
       -0.05553779 -0.04705797 -0.06403601 -0.02678277
0000f0 ab 5d 21 be a9 96 ff bd 9c 00 b2 3e 12 1c 90 bc
       -0.15758388 -0.12479908 0.3476609 -0.01759151
000100 2d bd ac bb 12 b6 fe bd c3 d1 7c bd 3d 2a 27 3d
       -0.005271575 -0.12437071 -0.061723482 0.040811766
000110 d0 e9 05 be a2 af 50 3e 9b fd 63 3d c6 72 82 3a
       -0.13077474 0.20379499 0.05566178 0.0009952418
000120 36 94 e3 b4 bd 93 4f bd 16 21 4d bd 58 54 e6 bb
       -4.2389883e-07 -0.050678004 -0.05008038 -0.0070290975
000130 4b b7 c0 bd 6f ce c0 bb 93 5f 3c bd f8 ae 15 be
       -0.0940996 -0.005883984 -0.045989584 -0.14617527
000140 18 aa 1f 3e aa da 55 bb f2 50 ad aa 55 51 95 bb
       0.1559223 -0.0032631555 -3.078714e-13 -0.0045568147
000150 f8 c5 f0 bd b0 5f a8 bd 75 85 ef bc 01 f3 36 bc
       -0.117565095 -0.08221376 -0.029238442 -0.011166335
000160 5d e7 80 bc 73 a4 91 bd 11 fa 07 bd 66 b9 ee bd
       -0.015735323 -0.07111444 -0.033197466 -0.11656456
000170 ce 30 27 bd 1b a4 d9 bc 7a 81 b5 3c a2 ed 6f be
       -0.04081803 -0.02656751 0.022156466 -0.23430493
000180 cd 70 21 be 9e 73 4a bd c8 76 91 3d ad af c9 3d
       -0.15765686 -0.049426667 0.07102734 0.098479606
000190 9c 67 86 bd 52 80 fb bc 8f ad 5b b8 e5 d3 d2 3b
       -0.06562731 -0.030700836 -5.2375308e-05 0.006433951
0001a0 1c da 04 bb 38 da 60 bd 85 4e 3c bd 9b 7e 5a bd
       -0.0020271605 -0.05489561 -0.04597332 -0.053343397
0001b0 48 08 df 3d 20 d3 f1 3c 0a f9 ae bd 5a 5b 90 3d
       0.108902514 0.029519618 -0.08543594 0.07048674
0001c0 b4 6b ef bd 5c 27 06 bc e4 27 bc bd bb da 23 bd
       -0.116904646 -0.008188095 -0.09187296 -0.04000352
0001d0 ca 11 cb 3d 6f 46 98 b9 06 cf d6 bd 41 1b 91 bc
       0.09915502 -0.00029044176 -0.10488705 -0.017713191
0001e0 ba 26 87 bc 78 41 7e 3e 57 d0 3b 3d 43 60 f6 bd
       -0.016497958 0.24829662 0.045852985 -0.12030079
0001f0 07 fa a8 bd b7 f8 e6 b7 b2 d1 06 bd 4b 67 82 b7
       -0.08250814 -2.7533953e-05 -0.032914825 -1.5545307e-05

act_conv1.weight f4 [4, 128, 1, 1]
000000 11 8b 07 00 ce 61 08 00 3e c0 0c 00 0f 6f 4c 80
       6.92736e-40 7.6977e-40 1.17099e-39 -7.019338e-39
000010 1e 27 32 80 99 6c 37 00 bd 4d 2b 00 cb da 09 80
       -4.605807e-39 5.08991e-39 3.976814e-39 -9.05008e-40
000020 a0 21 2b 80 dd 79 26 00 e2 61 94 b3 2e fc 53 00
       -3.960989e-39 3.533465e-39 -6.909592e-08 7.712811e-39
000030 ae 77 0f 00 3d 5d 00 80 52 f9 27 00 f6 60 45 80
       1.420465e-39 -3.3448e-41 3.671024e-39 -6.371432e-39
000040 f6 f7 21 80 66 15 2c 00 24 40 92 ac 69 72 33 00
       -3.119523e-39 4.048438e-39 -4.1566906e-12 4.724653e-39
000050 46 8d 14 00 e0 dc 41 00 55 9b 1e 00 29 90 0f 80
       1.887389e-39 6.048542e-39 2.810788e-39 -1.429247e-39
000060 ba ad 2a 00 2c 97 4c 00 53 42 98 87 60 7f 5b a6
       3.919412e-39 7.033728e-39 -2.29094e-34 -7.6153514e-16
000070 50 20 3f 80 60 69 16 80 34 8b 01 80 f6 09 34 00
       -5.797228e-39 -2.058182e-39 -1.41772e-40 4.779019e-39
000080 a2 2f a2 15 36 f6 1f 00 52 4d 22 80 c5 99 02 80
       6.550643e-26 2.935224e-39 -3.150144e-39 -2.38833e-40
000090 ff 16 2b 80 ea e9 0a 00 c0 1f 03 80 f9 23 9e a7
       -3.957176e-39 1.002268e-39 -2.86896e-40 -4.389281e-15
0000a0 72 af 3a 80 7c 7e 1b 80 8e 4d 1e 80 b3 e6 10 80
       -5.389397e-39 -2.524932e-39 -2.782886e-39 -1.552127e-39
0000b0 c2 2f 2b 80 8c 09 3e 16 4f bf 2a 80 7f ea 09 00
       -3.966059e-39 1.535109e-25 -3.92572e-39 9.10641e-40
0000c0 3c 49 32 00 34 7a 0c 80 73 47 17 00 4e 35 1e 80
       4.618046e-39 -1.145864e-39 2.137848e-39 -2.774187e-39
0000d0 5a 8e 10 80 52 14 09 00 3e 8f 29 b2 2b 29 40 af
       -1.520434e-39 8.33809e-40 -9.869664e-09 -1.7476924e-10
0000e0 ab d3 49 01 02 1e 9f a3 f2 be 2a 00 0a f4 40 00
       3.7069734e-38 -1.7251523e-17 3.925589e-39 5.965016e-39
0000f0 ef 6d 17 00 46 eb 2c 00 5d 60 2b 80 8b df 2f 80
       2.151653e-39 4.125162e-39 -3.983495e-39 -4.39646e-39
000100 99 25 3f 00 ca 87 44 80 bd f8 9f b2 70 aa 5f 01
       5.799124e-39 -6.293526e-39 -1.862315e-08 4.1080914e-38
000110 ed d8 14 00 cb 8e ba a2 6b 2b 01 00 2e fe 99 ae
       1.914528e-39 -5.056659e-18 1.07411e-40 -7.002786e-11
000120 75 90 2d 80 71 f7 3a 80 ee eb b6 a4 0c 46 13 00
       -4.184419e-39 -5.415224e-39 -7.93296e-17 1.770003e-39
000130 43 21 28 00 e9 6d 1e 80 3c ef 1f 00 56 06 25 00
       3.685352e-39 -2.794493e-39 2.932722e-39 3.400186e-39
000140 12 75 1b 00 50 dd 3f 80 f0 72 28 80 62 2a 51 00
       2.521555e-39 -5.865028e-39 -3.714652e-39 7.453879e-39
000150 98 77 be 0d ab 65 ba a9 0c 10 15 80 c9 19 2c 80
       1.1738445e-30 -8.277696e-14 -1.934302e-39 -4.050012e-39
000160 b3 76 10 80 33 d2 18 80 79 cd 10 00 c3 08 34 80
       -1.511949e-39 -2.279457e-39 1.543078e-39 -4.778589e-39
000170 12 2d c0 89 8a 0e 39 80 0f 3d 23 00 93 5c 15 00
       -4.6264703e-33 -5.239839e-39 3.236146e-39 1.961755e-39
000180 10 27 2b 80 9f f5 1d 80 56 e2 38 a7 6f 5f ad a9
       -3.96294e-39 -2.751342e-39 -2.5657827e-15 -7.6992984e-14
000190 93 60 0b 00 c7 96 18 00 f4 b7 bf 00 4e f7 23 b2
       1.044835e-39 2.25814e-39 1.760657e-38 -9.544079e-09
0001a0 5a 67 35 80 2a f6 44 a7 fc 54 0d 00 93 94 19 80
       -4.904357e-39 -2.733391e-15 1.224348e-39 -2.349186e-39
0001b0 ee fa 12 00 ab cd 2a 00 1a 6d 2d 80 ef 9a 14 80
       1.743056e-39 3.93087e-39 -4.171736e-39 -1.89229e-39
0001c0 2f 6e 4a 80 94 c5 1c 00 68 bf 38 00 32 10 09 a8
       -6.835353e-39 2.642272e-39 5.211451e-39 -7.6085395e-15
0001d0 32 ff 36 80 9e 08 3e 00 ef cc 32 80 37 a4 30 00
       -5.050664e-39 5.696892e-39 -4.665291e-39 4.467013e-39
0001e0 56 2f 2f 80 e8 ce 4c 81 70 48 cf 0b a3 36 26 00
       -4.333249e-39 -3.761733e-38 7.984249e-32 3.509349e-39
0001f0 8f 1c b5 b0 7c 7e 0f 00 94 1a 0d 00 b7 0b 1e 00
       -1.31776e-09 1.422906e-39 1.203396e-39 2.759267e-39
000200 c4 30 a4 3c 00 03 a0 bd c7 f7 90 bc 50 30 54 30
       0.020042785 -0.07813072 -0.017696274 7.7193807e-10
000210 74 f2 77 bc b7 e6 10 00 48 40 0d bd 4c a4 92 bc
       -0.015133489 1.552133e-39 -0.03448513 -0.017900608
000220 40 a9 32 b1 43 e0 78 2f 10 16 71 bd e3 72 11 bc
       -2.5998617e-09 2.2635142e-10 -0.05885893 -0.008877489
000230 d7 f9 9c bd 88 3b 6a 3c 47 e7 89 37 44 13 b9 3c
       -0.07664841 0.01429642 1.643937e-05 0.022592194
000240 7a 72 57 bd 4e ac 18 3d f9 81 92 bc a5 82 86 3b
       -0.052599408 0.037273698 -0.017884241 0.0041049295
000250 3f 8f 0b 00 84 2c 49 80 a9 6d 12 bd a1 17 02 bd
       1.061577e-39 -6.71996e-39 -0.03574911 -0.031760816
000260 3b c3 ab 39 1a 31 b7 ba 30 5f 7c bd 0a b7 0c bd
       0.0003276112 -0.0013976425 -0.061614215 -0.034354247
000270 cf d2 a4 3c e5 e7 20 2c e7 c4 b8 bd 72 d1 40 80
       0.020120053 2.2866095e-12 -0.09021931 -5.952607e-39
000280 b1 96 4a 39 8c 4a c8 3c 61 9b 89 85 4b 82 7a 3c
       0.00019320358 0.02444961 -1.2940495e-35 0.015289853
000290 d0 45 b1 3a c9 80 5c bd 7b ad 90 bd 3c 1f c5 bc
       0.0013524834 -0.053833757 -0.07064339 -0.024062745
0002a0 5e 03 da ae 4a 04 4a bd 4b fd 0b 80 77 de 43 bd
       -9.9140904e-11 -0.049320497 -1.101055e-39 -0.04781958
0002b0 be b0 aa bd e7 2e 27 3c a9 11 27 80 e4 cb 2a bd
       -0.08334492 0.0102040535 -3.58792e-39 -0.04169835
0002c0 b3 1b 86 38 dd 2a aa bb fd cd a9 bc 40 16 4f 80
       6.394777e-05 -0.005193098 -0.020728106 -7.262986e-39
0002d0 68 3e 49 00 9c dc 82 35 07 ed ac bd 2f 5b c2 bd
       6.726378e-39 9.74996e-07 -0.08443647 -0.09490048
0002e0 ad af c1 bd f1 91 1d bd 4d 17 47 bd 1b 25 6f 23
       -0.094573356 -0.03846926 -0.048606206 1.2964073e-17
0002f0 2d a2 c6 b9 bb fb 4a 3c 09 bd 0a 80 33 e4 b6 ae
       -0.00037886333 0.012389119 -9.86168e-40 -8.316938e-11
000300 2f c0 42 b6 ab 04 11 3c 88 88 bd bd b2 a9 ba bd
       -2.9020118e-06 0.008851211 -0.09254557 -0.09114398
000310 f2 b2 2f 80 ee 73 80 bc 57 7d e2 bb 2b 68 50 bd
       -4.380462e-39 -0.01568028 -0.0069119143 -0.050880592
000320 42 85 33 80 84 9d 98 3c 44 12 53 b7 a2 73 3f 80
       -4.731414e-39 0.018629797 -1.2580833e-05 -5.827117e-39
000330 6c f5 36 bb 79 40 6f b6 44 b5 09 00 a9 1e 21 3d
       -0.002791728 -3.5651303e-06 8.91545e-40 0.03933588
000340 9e e9 05 35 f3 34 2e 11 87 d9 9b a6 02 97 36 00
       4.988632e-07 1.3742496e-28 -1.0814246e-15 5.013288e-39
000350 2d 91 8d bd 08 8e d7 bd 87 88 c4 38 23 75 07 a6
       -0.06912456 -0.10525137 9.3714385e-05 -4.6996284e-16
000360 01 ec 78 ba 1e 35 80 bd ea 6a 7b bc 25 36 0c bb
       -0.00094956165 -0.06260131 -0.0153453145 -0.0021394577
000370 1b f4 86 bb ed b7 f4 ba c5 ee 41 3c 69 5c 08 00
       -0.004118455 -0.0018670537 0.011836712 7.67834e-40
000380 12 83 8f 3c b1 24 ed 3b 5f 48 1e bd 71 46 72 bd
       0.017518554 0.00723704 -0.038643237 -0.05914921
000390 0b 1a a7 bd cd ea 12 36 73 13 20 80 eb 61 96 bd
       -0.08159264 2.1892367e-06 -2.945713e-39 -0.07342895
0003a0 c5 5b a4 34 df aa 43 bd 04 54 02 bc 5d bd 0d bc
       3.0614152e-07 -0.047770377 -0.007954601 -0.008651105
0003b0 3b b2 33 bb 7b 88 26 80 ef 3f c7 3b 2a b4 11 be
       -0.0027419466 -3.538709e-39 0.0060806195 -0.14228883
0003c0 89 63 a1 3a f0 ad 1d 00 7f b7 12 3c 49 28 32 bb
       0.0012312989 2.725626e-39 0.008954882 -0.0027184656
0003d0 31 25 3c 00 90 8f 1e 18 30 0c 0e bd 5b 19 9b bc
       5.523472e-39 2.0493502e-24 -0.03467959 -0.018932989
0003e0 89 f9 ec 3c 68 98 27 bb 2b c4 15 bd b5 52 06 bc
       0.028927581 -0.002557302 -0.036564033 -0.00819843
0003f0 2a cf ff bd ab 97 16 31 6f 52 0f 31 55 6a 0e 00
       -0.12490685 2.1914086e-09 2.0856097e-09 1.323842e-39

act_conv1.bias f4 [4]
000000 39 e3 61 a8 b8 5c 15 be e0 e6 49 3e 11 67 8f 3e
       -1.253928e-14 -0.1458615 0.19716978 0.2800832

act_fc1.weight f4 [36, 144]
000000 93 fc 4f 00 25 c6 36 80 0e 90 53 80 a8 71 26 00
       7.345611e-39 -5.030198e-39 -7.674023e-39 3.530521e-39
000010 c9 27 39 00 5b a6 3f 00 7b 07 37 00 08 07 33 80
       5.248896e-39 5.845313e-39 5.053636e-39 -4.686133e-39
000020 da 9b 36 00 25 70 3f 00 2b 02 0f 80 30 66 12 80
       5.015026e-39 5.825866e-39 -1.37831e-39 -1.689697e-39
000030 18 e8 45 00 0e ca 27 00 2a f9 1e 80 af 3b 41 00
       6.419909e-39 3.654068e-39 -2.844448e-39 5.990718e-39
000040 da 15 31 80 bc 6c 43 00 7d 64 18 80 8f 2a 52 00
       -4.507778e-39 6.191985e-39 -2.2401e-39 7.545778e-39
000050 7c 27 24 80 cb 73 2a 00 df 21 14 00 c5 1d 14 80
       -3.320242e-39 3.89863e-39 1.84886e-39 -1.847389e-39
000060 42 81 0c 00 14 b8 19 00 da 31 0f 80 35 71 4f 00
       1.148395e-39 2.361922e-39 -1.395416e-39 7.295615e-39
000070 9b 9f 1d 80 58 13 31 80 4c 9b ee 80 58 00 41 80
       -2.720485e-39 -4.506879e-39 -2.1912558e-38 -5.96943e-39
000080 5b 22 50 80 86 cf 8e 01 b3 77 1a 00 94 ff 38 80
       -7.359164e-39 5.2460343e-38 2.430663e-39 -5.234472e-39
000090 65 16 03 10 62 00 90 2e 63 3f a4 a2 67 dc 7b a2
       2.5852447e-29 6.54843e-11 -4.4519402e-18 -3.4133523e-18
0000a0 49 57 a4 a2 14 a4 0b 00 cc 25 39 9f 9c f8 1c ae
       -4.4544706e-18 1.06905e-39 -3.920654e-20 -3.5691103e-11
0000b0 5b 5a aa b1 09 d1 80 b2 09 b1 1e 33 1d 2c 54 0f
       -4.9579234e-09 -1.499622e-08 3.6948254e-08 1.0460903e-29
0000c0 d5 8d 5f b0 e7 dc 16 b2 31 d9 12 b0 59 04 2d 34
       -8.1328483e-10 -8.7813765e-09 -5.342314e-10 1.6113462e-07
0000d0 df ba d4 34 2c 2b 21 22 9a 54 55 ae a4 61 93 35
       3.9624044e-07 2.1842424e-18 -4.8505734e-11 1.0980771e-06
0000e0 2d c8 41 b2 c8 3e 1f 34 6f e9 e9 32 1d e6 81 9d
       -1.1279593e-08 1.4830869e-07 2.7230923e-08 -3.4383947e-21
0000f0 5e 20 90 a7 b0 7f 83 33 0b 6b d6 b3 f4 f9 0f b3
       -4.000312e-15 6.123389e-08 -9.9846226e-08 -3.3522113e-08
000100 c1 dd 04 b3 40 9b 0b 21 58 92 c9 9a 63 05 b9 a9
       -3.093533e-08 4.7300504e-19 -8.336808e-23 -8.216585e-14
000110 3a bb cb b0 56 62 28 33 b5 89 24 30 d4 58 55 23
       -1.4823407e-09 3.9204984e-08 5.9858546e-10 1.1565563e-17
000120 5e b8 62 bd 2a b9 84 bd 7b c9 35 bd 71 41 a9 3a
       -0.055351608 -0.0648063 -0.0443816 0.001291318
000130 7e 46 47 3d 53 93 1b 3d 41 cd 08 3d 29 84 96 bc
       0.04865121 0.037982296 0.03339887 -0.018373566
000140 35 1d 8b bd 0e 69 a6 3d bb 38 a8 bd 4c 16 c5 bd
       -0.0679268 0.08125506 -0.082139455 -0.096233934
000150 9e 0e 30 3e a9 82 b3 3c 5d c7 cf bc 1b fc 1d 3e
       0.17193076 0.02191289 -0.025363619 0.15428202
000160 dc 3d bf 3d 9f a2 56 3d 1f 8b 1a 3e a3 45 d9 bd
       0.093379706 0.05240118 0.15092133 -0.10608985
000170 8a ed 09 3e 32 7d 03 be 66 fc 7b bd 72 bb ca bd
       0.1346952 -0.12840727 -0.061520003 -0.098990336
000180 3f bc 35 bf 0e 0c 43 3e a1 6e 32 3b f3 d2 75 3e
       -0.70990366 0.19047567 0.0027226584 0.24006252
000190 59 04 9c bd 09 13 f7 bd d5 4c 4f bf 00 3a 25 bd
       -0.07618017 -0.120641775 -0.8097661 -0.040338516
0001a0 32 7c 2e 3e 34 33 65 3b ea fc 01 bd 2b 67 fe bc
       0.17039564 0.0034973146 -0.03173534 -0.031055054
0001b0 a4 d2 83 3d c8 b7 00 be f5 69 5c bd 8f b1 19 be
       0.06436661 -0.12570107 -0.053811986 -0.1500914
0001c0 a7 d7 3b be 8a 76 40 be 11 3a b1 be 25 0a 3c bd
       -0.18343984 -0.18795219 -0.34614614 -0.045908112
0001d0 b7 0f 95 bb 7a 69 3d be 4d 86 67 3d da d2 72 bd
       -0.0045489925 -0.18497267 0.056524564 -0.059283115
0001e0 f8 f5 4d be 4e b9 9b be 46 b8 ae 3d 99 98 fa bd
       -0.20113361 -0.30414814 0.08531241 -0.12236137
0001f0 60 6d 8c bd 90 06 1e be fb f5 da be ca c2 7f be
       -0.06856799 -0.15432191 -0.42765793 -0.2497665
000200 9e 35 5a bc 64 20 7b 3d 4c 13 de bd 65 0f b8 3d
       -0.013318447 0.061310187 -0.10843524 0.08987311
000210 52 de ec 3c 85 c4 80 be 65 f9 7c be 46 72 ba bd
       0.028914604 -0.25149933 -0.24704511 -0.09103827
000220 b2 5e 9d 3e 3a de 82 bd a7 11 35 bf 14 62 6e bd
       0.3073631 -0.063900426 -0.7073006 -0.058199003
000230 bf c3 06 3e 2c da 9e bd e0 2e 0a be 15 7a 62 3d
       0.13160609 -0.07756457 -0.13494444 0.055292208
000240 e6 b5 4f 80 8c 94 33 00 78 a7 22 00 e7 58 2e 80
       -7.320257e-39 4.736899e-39 3.182483e-39 -4.256325e-39
000250 e3 48 45 80 7d aa 40 00 c6 76 21 80 4e ed 12 80
       -6.362796e-39 5.938631e-39 -3.073179e-39 -1.738168e-39
000260 79 4d 06 80 46 ab 45 80 19 43 07 00 f9 4d 1f 00
       -5.78805e-40 -6.39809e-39 6.66919e-40 2.874872e-39
000270 ac f8 2f 80 77 58 0d 00 66 5c 0e 00 42 b6 99 03
       -4.405475e-39 1.225597e-39 1.318843e-39 9.034376e-37
000280 3a 19 15 80 88 57 2d 00 ac f8 42 00 8c 43 16 80
       -1.937595e-39 4.163998e-39 6.15035e-39 -2.044612e-39
000290 13 ca 2d 80 19 0e 22 00 a8 67 4d 80 4f ef 23 00
       -4.205088e-39 3.127464e-39 -7.108518e-39 3.30009e-39
0002a0 92 f7 43 00 b9 46 2b 80 60 e3 2b 80 fc df 19 00
       6.24179e-39 -3.974297e-39 -4.030493e-39 2.376238e-39
0002b0 29 17 54 80 96 18 4a 80 27 93 24 80 f6 87 8f 80
       -7.72249e-39 -6.804646e-39 -3.358866e-39 -1.318125e-38
0002c0 76 1c 1b 80 a0 59 01 00 50 24 db 00 93 f8 3c 80
       -2.489768e-39 1.23987e-40 2.0125e-38 -5.599301e-39
0002d0 d1 e5 da a6 6e 3d 1a af 62 29 92 b1 a4 b7 16 33
       -1.5189081e-15 -1.4028043e-10 -4.253864e-09 3.5091617e-08
0002e0 f2 c7 09 b1 3e 62 09 80 14 55 89 ae b6 3b e4 b5
       -2.004978e-09 -8.61762e-40 -6.2451516e-11 -1.7004702e-06
0002f0 93 22 62 b7 9b 3e 82 b6 ae a4 1c 3b 6f e8 13 38
       -1.34787e-05 -3.88159e-06 0.0023901868 3.5264e-05
000300 ac af 2e b6 61 36 32 b7 6c ea e3 b8 75 7d a4 b8
       -2.6030275e-06 -1.0622288e-05 -0.00010867868 -7.8434976e-05
000310 8a 5d 44 b8 98 05 e0 af 8e f1 65 38 ed 86 eb 3b
       -4.6817157e-05 -4.0749337e-10 5.482282e-05 0.0071877153
000320 e5 69 d4 b9 1b 95 0e b9 7a 5d 39 b8 12 3d 00 b0
       -0.0004051469 -0.00013597721 -4.4194494e-05 -4.6652915e-10
000330 a6 96 87 30 91 db 93 3a 77 58 cf 3c c7 d8 28 b7
       9.86536e-10 0.0011280646 0.025310738 -1.0064053e-05
000340 5a 1f e7 b5 45 cd 80 a7 0d a0 c0 13 fa a7 82 38
       -1.7219966e-06 -3.574969e-15 4.8625436e-27 6.230171e-05
000350 7d 0d 08 3c 10 00 0d 3b 20 fa e7 b5 79 64 14 16
       0.008303997 0.002151493 -1.7283637e-06 1.1987048e-25
000360 60 f9 55 be 30 47 95 3c 28 06 17 3e a4 4e 97 3d
       -0.2089591 0.018222421 0.14748442 0.073880464
000370 ca 8e b1 bc 90 e4 26 be 03 3c 24 be 8d cf 3c 3d
       -0.021674532 -0.16298127 -0.16038518 0.046096373
000380 c7 90 de bc e9 c2 f8 bd f3 aa 28 bc b8 34 92 bd
       -0.027168645 -0.12146551 -0.010294664 -0.071389616
000390 a2 89 d1 ba a7 e3 7e 3e 67 4d 63 3d e8 b3 37 3c
       -0.0015986452 0.2489153 0.05549374 0.011212327
0003a0 da 68 17 3e 3a 76 fe 3c ae 83 75 bc cc 07 3b 3b
       0.14786091 0.031062234 -0.014985008 0.0028538583
0003b0 ed 06 10 be 79 35 f1 3d ac e3 8e bd 46 af 5b 3d
       -0.14065142 0.11777777 -0.06977019 0.05363395
0003c0 46 26 35 3e 6e e1 46 bf f7 cd 51 3e 87 54 b3 3d
       0.17690381 -0.7768773 0.20488726 0.08756357
0003d0 7a a6 7c 3d 1a da b7 bd 0f 34 f5 bd 70 a2 53 bf
       0.061682202 -0.089771464 -0.1197282 -0.82669735
0003e0 fa 1c 56 3e 41 9b 9e 3b 42 84 12 3e ec c3 4b 3d
       0.20909491 0.004840285 0.14308265 0.049747393
0003f0 10 88 e8 bd 99 f5 2a be 5b 9d 66 be bf d2 8a be
       -0.11354077 -0.1669525 -0.22520964 -0.27113912

act_fc1.bias f4 [36]
000000 79 12 fd be cf 00 1f bd e3 e4 fd be a7 e0 e6 be
       -0.49428156 -0.03881913 -0.4958869 -0.4509327
000010 5d cc 26 3d 90 93 fb be 78 41 25 bd ce 1c cd bb
       0.04072224 -0.4913602 -0.04034564 -0.0062595373
000020 2d 7a 80 3e 1a 2c 2e 3e f1 f9 97 3d c1 0f a5 3d
       0.25093213 0.17009011 0.074207194 0.080596454
000030 93 3e ff be ce 5a c0 3e b1 fc 5b 3e 47 d3 a1 3e
       -0.49852428 0.37569278 0.21483113 0.31606504
000040 bb f4 7d 3e d6 dc 03 bf 40 23 f1 be 44 16 9c 3e
       0.24800389 -0.51508844 -0.47097206 0.30485737
000050 10 17 e0 3d e0 e3 96 3d e9 ee 8f 3e 3a 8b a7 be
       0.10941899 0.073676825 0.2811196 -0.3272341
000060 82 04 94 bd 43 fa 4c 3e 0c cc 94 3e f2 a5 a2 3e
       -0.07227422 0.20017342 0.29061925 0.3176723
000070 da 06 12 3e ce 36 93 bd c1 0c 08 bf 64 c0 c6 3c
       0.14260426 -0.071881875 -0.5314446 0.02426166
000080 81 de ea be 45 de c3 be 64 1f 63 3d d8 f8 12 bf
       -0.45872882 -0.38255516 0.05544986 -0.57410955
