current_policy.model (torch, 422131 bytes, 15 tensors)

conv1.weight f4 [32, 4, 3, 3]
000000 11 21 9d bd 0d 6b bf 3e ac 27 e8 3e c8 1e b3 3e
       -0.076723225 0.3738636 0.45342767 0.34984422
000010 5b 8c 92 3e 60 6b 80 3a ef 3e c4 3e 80 24 f1 3e
       0.28622708 0.0009797625 0.38329265 0.4709816
000020 62 51 ea be 7c c0 ad bc e5 a4 3f be dc 2b 2a be
       -0.45765215 -0.021209948 -0.18715246 -0.16618294
000030 64 0a b9 3d 61 b7 bb be 44 d3 b9 3d ce 22 ac bc
       0.09035185 -0.36663345 0.09073499 -0.02101269
000040 b0 dd 83 bd 03 ab 89 bd 12 7e 80 bd 6c 1b 1e be
       -0.06438768 -0.06722071 -0.06274046 -0.15440148
000050 69 9d 39 bd 37 55 64 bd 91 b3 4d be c9 8a 83 bb
       -0.045316134 -0.05574533 -0.2008803 -0.004014347
000060 1c 8b cf bd 03 74 3b bd 6d 1e c8 3d 43 e0 e6 3c
       -0.10133955 -0.045764934 0.09771428 0.028183108
000070 b8 b3 7f bb b0 dc 27 be 63 fe f0 3d 2d 07 6e 3e
       -0.0039017033 -0.1639278 0.117672704 0.23244925
000080 8c 57 4f be 98 67 96 bd b6 fe 50 bd 52 bf 89 3d
       -0.2024824 -0.07343978 -0.05102416 0.067259446
000090 49 4e 36 be 5d e4 c6 3e d1 73 8d be 6f d1 5f be
       -0.17803301 0.38846102 -0.27627423 -0.21857236
0000a0 bc 4f 1f 3e 2e 18 16 bf 54 52 af be 50 c8 9b bd
       0.1555776 -0.58630645 -0.342425 -0.07606566
0000b0 be 7d 35 3f 1a 3e 0e be b6 f5 7d be 34 78 ea bd
       0.7089499 -0.13890877 -0.24800763 -0.11448708
0000c0 04 8b 34 bd c7 d2 9b be 35 fe 8a be 53 93 8b be
       -0.044077888 -0.30434248 -0.2714707 -0.27260837
0000d0 43 e3 f3 3d 3c 96 bd be ea 75 5f bd 5a 37 bd be
       0.11908581 -0.37028682 -0.05455581 -0.36956292
0000e0 9c 0c 4a 3d 9b a1 29 3b 36 02 80 bc 10 c3 1e be
       0.04932843 0.0025883678 -0.015626054 -0.15504098
0000f0 d1 ae 48 3e 9d 21 09 bc e6 82 9a 3c 6a 7c 3d 3e
       0.19597937 -0.00836983 0.018861245 0.18504491
000100 91 57 13 3e 54 fa d5 bc 7d 31 05 3d 4f b4 df 3c
       0.14388873 -0.026120342 0.0325179 0.027307658
000110 8c 10 00 bd 34 95 5b 3d 2c 53 d7 3d 8a f2 5b be
       -0.03126578 0.053609088 0.10513911 -0.2147924
000120 1b bc 6d be e4 3a 8a bd f0 a1 69 3d 01 79 f2 bd
       -0.23216288 -0.06749514 0.0570392 -0.11839486
000130 7a af f2 3c 81 b9 c6 bc bb de 77 be 07 eb 47 be
       0.02962469 -0.024258377 -0.24206059 -0.1952325
000140 9d c7 a0 be a4 52 3e 3c 4d 0d 85 3e 21 e6 d0 be
       -0.31402293 0.011616383 0.2598671 -0.40800574
000150 02 cb 0a bf 31 cc 33 3f b3 a2 da 3e ae 53 03 3f
       -0.54216015 0.70233446 0.42702255 0.5129956
000160 06 4e d1 3d ea a5 3f bf 2a 32 07 3e a3 5c 8d 3d
       0.1021996 -0.7486254 0.1320273 0.06902435
000170 a1 9d 44 3d 16 be ab 3c 74 06 ba bc fb 98 9a bc
       0.04800189 0.020964663 -0.022708155 -0.018871775
000180 99 06 8a bd 10 3e ea ba 46 94 a5 3d 68 ff a9 3b
       -0.0673954 -0.0017871279 0.080849215 0.0051879175
000190 7e 79 02 bb 54 3c de 3d 9d f1 8a 3c 22 94 18 bd
       -0.001990884 0.108513504 0.016960913 -0.037250645
0001a0 03 4f 89 bd bc a4 b8 bd 02 05 35 3e a1 0e 2b 3c
       -0.067045234 -0.090157956 0.17677692 0.0104404995
0001b0 23 6c 03 3e a6 3c b4 be 94 ad bc bd 8c 1b f0 3e
       0.1283422 -0.3520252 -0.09212795 0.46896017
0001c0 ae 85 af 3d 56 2b 07 bf e3 84 38 3e 7f 12 ab 3e
       0.08570419 -0.528005 0.18019442 0.3341255
0001d0 04 4e 14 3d 85 d0 8c 3e 1c 5b dc 3d 0f 17 a0 3e
       0.036207214 0.27502838 0.10759565 0.31267592
0001e0 ef ca a8 bd 17 db 11 be 64 c4 6e be b5 aa 80 be
       -0.082418315 -0.14243732 -0.23317105 -0.2513024
0001f0 77 c1 e5 bd 3d f7 b0 3e a5 2c 14 bd 7f 1b 9c 3c
       -0.11218541 0.34563628 -0.03617539 0.01905608
000200 bb 42 8b 3d 67 91 07 be fb 38 5f 3e 9c 73 cf 3c
       0.06799837 -0.1323906 0.2179908 0.025323682
000210 25 32 10 3d 38 91 f3 bd f5 9b a5 bd 0e 78 a4 bc
       0.03520407 -0.11892933 -0.08086387 -0.020076778
000220 84 c2 94 bd c9 f7 c5 3d e5 ed 6b 3c e6 d7 95 3d
       -0.072636634 0.09666402 0.01439998 0.0731657
000230 fd 0d ad 3c 25 3d 65 bd af c4 dd 3d 38 10 55 bd
       0.021124834 -0.055966515 0.1082853 -0.05201742
000240 ba 49 82 be aa fa 83 3d 8c f7 ca 3e b9 5b ce 3d
       -0.25446874 0.06444295 0.39641988 0.100760885
000250 31 55 ba be 49 b5 c9 3e 30 8e c5 be e9 9b f7 3d
       -0.3639312 0.39396122 -0.38585043 0.120902844
000260 bb b0 e3 be 6b 1b 99 bb 3a b0 08 be 83 93 17 3e
       -0.44470772 -0.004672458 -0.13348475 0.14802365
000270 df e0 dc be 82 1a ac be 1c 4b 10 bf 95 0e e7 3d
       -0.43140313 -0.33613974 -0.5636461 0.11282078
000280 39 72 39 be 70 a6 80 be 6c 65 ed bd 36 f7 3f bd
       -0.18109979 -0.25126982 -0.1159161 -0.046866618
000290 13 8a 51 3d 12 7e 1c 3e fd fb 93 3d 16 37 89 be
       0.05115707 0.15282467 0.07225797 -0.2679984
0002a0 77 49 b8 bc a2 38 2e bc 5c a6 76 3d f5 3e d1 bd
       -0.022495968 -0.0106336195 0.060217246 -0.10217086
0002b0 d3 c8 fe bd a4 c7 0b 3e 43 cb 71 3d 41 65 28 3e
       -0.12440648 0.13650376 0.059031736 0.16444875
0002c0 af 91 03 bd ee c0 2b 3c 5c a6 69 3d 86 44 b2 3d
       -0.032121357 0.01048301 0.05704342 0.08704476
0002d0 60 10 8b 3e 8d ac 56 3e 70 2d fa bd 31 32 65 be
       0.2716093 0.2096426 -0.12215698 -0.22382428
0002e0 8a 45 a4 3b f8 86 4a 3e 33 70 83 be 19 5f c5 3e
       0.0050131725 0.19778049 -0.2567154 0.38549116
0002f0 78 80 66 bd d8 7a 9b 3e 33 95 cc be 2b 09 18 3e
       -0.05627486 0.3036716 -0.3995758 0.14847247
000300 43 29 b5 3d 89 11 30 bd b8 ee 6d be 12 3b 8e 3e
       0.08845761 -0.042985473 -0.23235595 0.27779442
000310 04 f7 a3 3e 42 8d 9d 3e d4 1a 8a be 12 e2 52 be
       0.32024395 0.30771834 -0.26973593 -0.20594051
000320 3e ab 7d be a4 67 20 bc 9a fa 18 3d 5c 1c c5 3c
       -0.24772355 -0.009790335 0.037348367 0.024061374
000330 03 e4 73 bc 2d 15 71 bd ff a5 65 bd 29 2f fd bc
       -0.014885905 -0.058858085 -0.05606651 -0.030906277
000340 8e 1e d1 bd 96 b0 99 bd 1e d3 83 3d 8d dc 6d bd
       -0.10210906 -0.07504384 0.06436752 -0.05807166
000350 59 35 02 be 3f 0c f5 3d fe 2b 05 3e f0 83 70 be
       -0.12715663 0.119652264 0.13005063 -0.2348783
000360 2b 18 df 3e 6c 89 2e bd 07 e6 99 3e fb c0 0a be
       0.43573126 -0.042611524 0.3005831 -0.13550179
000370 f6 74 63 3d a9 e5 40 be 64 47 48 3e 79 ce 6b be
       0.055531465 -0.18837608 0.19558483 -0.23027982
000380 d1 17 3b 3d 68 c1 f1 3e 09 6e cf bc d5 e9 d2 be
       0.04567701 0.4721787 -0.025321024 -0.41194025
000390 f2 3e 9d 3e 85 bf 96 3e c9 05 1d 3e 74 41 0d bf
       0.30712086 0.29442993 0.15334238 -0.55178
0003a0 62 e7 d1 bd e4 b7 18 3f 8f ce c8 3c f6 53 0d 3c
       -0.10249211 0.59655595 0.024512557 0.008625975
0003b0 80 9c bd bd d0 d2 b3 3d e7 47 8b 3c fa 3f 24 be
       -0.09258366 0.08780444 0.01700206 -0.1604003
0003c0 88 60 a4 3d 7c 3d de 3c 50 41 be bd 18 03 d3 3d
       0.080262244 0.027128927 -0.09289801 0.103033245
0003d0 06 46 2a be 8e 50 0a 3d 47 b8 b5 bd 64 b6 8c 3a
       -0.16628274 0.03376823 -0.08873039 0.0010735509
0003e0 b5 ff e5 3d 3c d8 22 3e e4 f8 0a be c6 13 17 3e
       0.11230413 0.159028 -0.13571507 0.14753637
0003f0 e3 c0 b2 bd 48 31 8f be 6d ea 1b bd 31 4a 19 bd
       -0.087281965 -0.27967286 -0.038065363 -0.03742427

conv1.bias f4 [32]
000000 33 f3 78 be 64 da ff 3c b9 ad 11 bd 9b 03 6f be
       -0.24311523 0.031232066 -0.035566065 -0.23341219
000010 21 7a 35 3e 6f 99 92 be 8c 10 6b be 09 9f ee bd
       0.1772237 -0.28632686 -0.22955531 -0.11651427
000020 99 a2 88 3d 7d 0c ae 3d cf b0 39 3e 7a ed b0 bb
       0.06671638 0.08498476 0.18133853 -0.005399403
000030 c0 b9 8e bc cd bb 66 be 36 1e d3 bd c8 92 88 bd
       -0.017422557 -0.22532578 -0.10308497 -0.06668621
000040 1a 93 0f 3e df 10 0d be 7e d5 c0 bd ca 93 2a be
       0.14020959 -0.13775967 -0.094157204 -0.1665794
000050 41 07 78 be 42 e3 88 be 94 4d 00 be ff 64 5c be
       -0.24221517 -0.26735884 -0.12529594 -0.21522902
000060 76 b7 54 be b3 42 85 be 0f c9 e3 bd 3c 43 29 be
       -0.2077311 -0.2602745 -0.11122333 -0.16529554
000070 d8 b0 97 bd 6e f4 05 3d 9f 85 0b 3d 93 56 28 3c
       -0.07406777 0.03270381 0.034062978 0.010274547

conv2.weight f4 [64, 32, 3, 3]
000000 cc fe c4 bc a6 d1 22 3e 25 c3 af bc 44 26 ad 3d
       -0.024047278 0.15900287 -0.021455357 0.08454564
000010 7f 26 d7 bd d8 d4 66 3e e4 df c8 3d 5f 9e 9c bd
       -0.105053894 0.22542131 0.09808329 -0.076473944
000020 2a 24 ab 3c 5b 73 a0 3d 27 1f c6 bc 55 99 8c 3d
       0.020891268 0.07834502 -0.024184776 0.06865183
000030 2b c4 35 be e6 5d 82 bd 18 c8 99 bd 99 97 23 be
       -0.17750613 -0.06365566 -0.07508868 -0.15975799
000040 2b 20 65 3d dc 89 16 3d be d6 06 be 3a e6 c7 bd
       0.05593888 0.036752567 -0.13167855 -0.09760709
000050 74 d4 5d 3d 32 56 28 3e db d6 91 3d fd ee 9a bd
       0.05415769 0.16439131 0.071210586 -0.07565115
000060 6f 97 5d bd 0e 0e 1c 3d 98 fc c9 3c fd a4 c1 bd
       -0.054099496 0.03809934 0.024656579 -0.09455297
000070 69 e5 ab bd 4d bf bc 3d 7f d2 46 be d0 49 ff bc
       -0.08393366 0.09216175 -0.19416235 -0.031163126
000080 f4 17 24 3e d0 41 e3 bd fc 37 57 bd 4b 04 44 3d
       0.16024762 -0.11096537 -0.052543625 0.047855657
000090 a7 b0 84 bb 56 dd d6 bd 95 7f 04 bd 66 79 95 3d
       -0.004049379 -0.10491435 -0.032348234 0.072985455
0000a0 18 1f 05 be 82 cc 05 be 7b 4e 61 3e 00 26 c9 3d
       -0.13000143 -0.13066295 0.22002594 0.09821701
0000b0 f9 73 b0 3c d7 c5 e9 3c 48 53 37 3e 62 7f 0e be
       0.021539675 0.02853672 0.17902863 -0.1391578
0000c0 04 70 6a bd b0 6c 12 3e 28 50 8e bc 81 c9 ba bd
       -0.057235733 0.14299273 -0.017372206 -0.09120465
0000d0 0c 33 2f ba bc 24 09 3d 7a 07 ad 3d de 6c 9e bd
       -0.0006683327 0.0334823 0.08448692 -0.077356085
0000e0 a6 11 f8 3d 16 9f 4a be de cc ba 3d 9a 55 d7 bd
       0.12112741 -0.19787249 0.091211066 -0.10514374
0000f0 7d e7 56 3d d0 16 b8 bc a0 47 6f 3e 20 40 ca 3d
       0.05246686 -0.022471815 0.23367167 0.09875512
000100 0b 92 9b bd 74 8c 23 3e db f4 d8 bd a5 ef c9 bd
       -0.07596215 0.15971547 -0.105935775 -0.09860162
000110 e3 76 4d bd 50 11 3a 3c f6 49 b9 3d 62 95 4e 3e
       -0.050162207 0.011356667 0.0904731 0.20174173
000120 3a 1e 3c bd 82 b3 60 bc 20 f0 1e be 64 d7 8a 3d
       -0.045927264 -0.013714673 -0.15521288 0.06779364
000130 16 c8 6a 3d 1c 3c a0 bd f7 32 77 bd e4 40 f2 bc
       0.057319723 -0.07823965 -0.06035134 -0.029571958
000140 59 02 28 3e 27 b0 85 3d 1b cd 16 3e ab 3a 1b bb
       0.16407146 0.06527739 0.14726679 -0.0023686092
000150 d3 61 bc 3d 01 3e 72 3d be b2 df be 50 d4 80 bd
       0.09198346 0.059141163 -0.43691057 -0.062904954
000160 5a 8e 24 be 9a 25 27 be 1b 67 16 3d 69 ee 14 3e
       -0.16069928 -0.16322938 0.036719423 0.14544071
000170 9a 84 4e 3d 86 ab 2f 3e 17 81 3f 3e 98 c7 cc bc
       0.050419427 0.17155275 0.18701588 -0.024997517
000180 c3 a0 b9 3d 59 11 2d bc 7b c1 59 3d 74 d8 21 be
       0.09063866 -0.010563218 0.053163033 -0.15805227
000190 5a d7 02 be a5 a5 9d 3c 15 9b 0c 3c 43 1b de bd
       -0.12777463 0.019244025 0.008581896 -0.108450435
0001a0 7e 28 48 bd e7 88 9a be e0 3d 9d ba 33 bc ea 3d
       -0.04886674 -0.30182573 -0.001199659 0.114616774
0001b0 5d 22 66 3e 74 ad 3e 3e e8 17 96 3c c6 cb bb 3d
       0.22474046 0.18620855 0.018321946 0.09169726
0001c0 ce 4e fb 3e 36 6a 91 3d a8 d2 fb 3d a3 d4 8c 3d
       0.4908356 0.07100336 0.12296039 0.06876495
0001d0 81 ee 62 3d af 4f 25 3e 5a d2 1f 3d d1 a1 27 3e
       0.055403236 0.16143678 0.039018966 0.16370322
0001e0 b0 62 0a 3e 5e d9 3f 3e f7 9a 9b bd c1 a4 8f 3c
       0.13514209 0.18735263 -0.075979166 0.017534615
0001f0 a1 7d 06 3e 76 76 36 be b1 00 f8 3d 63 9e 00 be
       0.13133861 -0.17818627 0.12109507 -0.1256042
000200 4f c7 1a 3e e2 fa 7c be e9 5b 00 be 2e c6 89 be
       0.15115093 -0.24705079 -0.12535061 -0.26909012
000210 d8 b3 ae 3c 1b b9 e3 bc de f0 42 3e 89 37 23 bd
       0.02132599 -0.027798226 0.19037196 -0.039847884
000220 ac 9b 42 3d a4 fb be bd 21 2a 88 3e d6 53 2d be
       0.04751174 -0.093253404 0.26594642 -0.16926512
000230 0d 0e 1e 3d d8 10 e0 3d e7 8c df 3d 0e 8a 73 3c
       0.03858762 0.10940713 0.10915547 0.014864458
000240 bb 83 ca bd 2f 03 c4 bd 2e 3c fd 3d 58 90 4c 3d
       -0.09888407 -0.0957092 0.12364994 0.049942344
000250 78 36 36 be 80 08 99 3d 9d f7 f5 3c 83 35 75 be
       -0.17794216 0.07472324 0.030025298 -0.23946194
000260 5e 6c 09 3e 97 d4 78 3d 8b d0 ef 3d 87 0f bd bd
       0.13420245 0.060749616 0.11709698 -0.09231477
000270 08 d4 93 bc 68 04 ba 3d b9 b2 d3 bd 60 3b 7f bc
       -0.01804544 0.09082872 -0.10336823 -0.015578121
000280 ff fb 34 3d ed a0 bd 3d c2 11 10 be da e2 69 bd
       0.044185635 0.0925921 -0.14069274 -0.057101108
000290 5b 3c 31 3d c9 8f 12 be ce 61 3e be 94 54 8f bc
       0.04327045 -0.14312662 -0.18591997 -0.017496385
0002a0 fc 03 ed 3b f0 84 4c 3e 24 50 7e bc 9a 23 8a 3c
       0.007233141 0.19972587 -0.015522037 0.01686268
0002b0 60 1d 4d 3b 37 e3 b7 3d 1f a1 0a 3e 5e 61 94 bc
       0.0031298026 0.08978885 0.13538025 -0.018112835
0002c0 fe cc 5b 3e 2c 61 25 3d 3f 3b 26 3e c2 c8 8a bd
       0.21464917 0.040375873 0.16233538 -0.06776573
0002d0 71 b2 10 bd 71 5e 5f bc d1 50 14 bd ee f5 7c 3c
       -0.035326425 -0.013633356 -0.036209885 0.015439494
0002e0 d9 e8 7e 3e 72 4d 0c 3b 55 ab 60 bb 0e 6c ab bb
       0.24893512 0.0021408466 -0.003428181 -0.005231387
0002f0 8f aa bd be 73 92 07 bd 0e ba 8c be 0b ce a7 3d
       -0.37044188 -0.03309865 -0.27485698 0.081935965
000300 c0 c4 3e bd e2 5f 73 3e ce 75 6a 3d 3a f6 fa 3c
       -0.046574354 0.23767045 0.057241254 0.030634988
000310 f0 08 8f 3d 50 f1 0c be 3b 21 4d 3e 31 3a 2c 3e
       0.069841266 -0.13763928 0.20032208 0.16819073
000320 ca 2c d3 3d 98 cb 6c 3e c3 98 0a be 04 76 a9 bd
       0.10311277 0.2312454 -0.13534836 -0.08274463
000330 5b 91 33 3e c6 b3 66 bd c2 a0 26 3d 57 80 0e 3e
       0.17535917 -0.05632379 0.040680654 0.13916145
000340 d2 5c 38 be a4 2d 77 3e 2e 1a 2e be f5 79 8f bd
       -0.18004158 0.24138504 -0.17002174 -0.07005683
000350 8e 98 9f 3d 36 9d 8b bc a3 45 38 bb 36 6e 06 be
       0.07792769 -0.017042737 -0.0028117679 -0.1312798
000360 b2 99 c2 bd 44 53 fa 3d 1f 74 23 be e6 23 72 be
       -0.09501971 0.12222913 -0.15962265 -0.23646507
000370 3a 9c 04 3d 50 c9 0d be ca 69 06 3d a7 09 e9 3d
       0.03237555 -0.13846326 0.032815732 0.11378794
000380 83 00 8d 3d 63 6e 76 3e a9 06 81 3d 06 01 72 3e
       0.06884863 0.24065547 0.063000984 0.23633203
000390 41 a0 f9 bc 4c 7a 61 3e 09 ec 68 3e 3d bf 98 bd
       -0.030471923 0.22019309 0.2274629 -0.07458351
0003a0 83 7a c0 3d 76 8d 47 bd 16 8e e4 3d fe b9 fd 3c
       0.09398367 -0.048718892 0.11159913 0.030972477
0003b0 54 f8 08 3e d2 91 0b 3d 63 30 4b be 53 e2 f5 bc
       0.1337598 0.034074612 -0.19842677 -0.030015146
0003c0 fb 8f cb bd d6 fd 92 3e c6 1b 5e bc e6 56 c8 bd
       -0.099395715 0.28709286 -0.013556426 -0.097821996
0003d0 75 86 e0 3d fb c8 1c be 46 5b 91 3e d6 62 0d 3f
       0.10963146 -0.15311043 0.2838995 0.55228937
0003e0 1b 22 80 be 9c b3 8e be f7 14 9b 3d 99 c3 2b be
       -0.2502602 -0.27871406 0.07572358 -0.16773833
0003f0 07 75 d5 3d a3 c3 d6 bd ba 81 82 bc 03 d3 d4 3d
       0.10422712 -0.104865335 -0.015931 0.1039181

conv2.bias f4 [64]
000000 c6 f1 1a bd 41 be 04 be 88 bd 74 bd ee 30 30 bd
       -0.03782823 -0.12963201 -0.059751064 -0.043015413
000010 c7 b6 96 bd 73 a8 fa b0 27 65 1b 8c d8 9b f6 bd
       -0.07359081 -1.823777e-09 -1.1971205e-31 -0.120414436
000020 bd 63 c6 bc 0a c9 fd bd a0 9b 35 bd 4c 88 ae bd
       -0.02421748 -0.12391861 -0.04433787 -0.0852209
000030 e4 d0 1d be 52 20 8c bd 74 32 62 bd fb 00 f9 3c
       -0.15411717 -0.06842102 -0.055223897 0.030395975
000040 98 1e 6e bc 52 b1 0a 3d d6 4a 1d be d2 02 05 bd
       -0.014533661 0.033860512 -0.15360579 -0.032473393
000050 f7 5a 0d 3d b9 6b 05 bd 54 b0 42 be c4 d1 33 3d
       0.03451058 -0.032573435 -0.19012576 0.04390122
000060 15 79 bf 3d d7 73 9b 3b c8 ff ba bc 93 ae 26 be
       0.093492664 0.004744034 -0.022827044 -0.16277532
000070 4a 6d 54 bd 2f ae d2 bd f5 bf 21 bb 44 3b 87 bb
       -0.05186204 -0.10287129 -0.0024681066 -0.004126938
000080 dc 52 aa 3c 44 b1 f2 bd 89 e7 0c be 7f 28 83 bd
       0.020791464 -0.11850217 -0.13760199 -0.064042084
000090 5a 94 95 3d 50 93 4f be ea 2f 36 a8 ac 25 f2 bd
       0.073036864 -0.20271039 -1.0113419e-14 -0.118235916
0000a0 5d e8 29 be 36 ec 97 bd 55 69 00 be 90 26 ee bd
       -0.16592546 -0.074181005 -0.12540181 -0.11628449
0000b0 e6 1c 97 aa 9b cf 30 bd 33 b5 2e 3c ab 99 bd bd
       -2.684304e-13 -0.043166738 0.010663318 -0.092578255
0000c0 75 ef 8c bd 74 ce e9 bc ca 10 70 be ec c3 81 be
       -0.0688161 -0.028540827 -0.23443905 -0.2534479
0000d0 27 5d a3 bd bc 17 31 be fc 53 8b 3d 17 f6 c0 bc
       -0.07976752 -0.1729421 0.06803128 -0.023554845
0000e0 60 00 54 bd fb 7f b7 bd aa fc 7b bd 71 f9 3e be
       -0.05175817 -0.08959957 -0.061520256 -0.18649842
0000f0 af fd c8 bd d9 0d 11 bd d4 7b a2 bb 3f 5d e6 bd
       -0.09814011 -0.035413597 -0.004958609 -0.11248254

conv3.weight f4 [128, 64, 3, 3]
000000 be db 4a 3e 87 64 07 3d a3 4c 00 3d 12 42 3e 3d
       0.19810387 0.033054855 0.031323086 0.04644973
000010 ef 18 36 bc 39 e1 c9 3c be 28 ea 3d 2f cd ac 3d
       -0.011114343 0.024643527 0.11433552 0.08437573
000020 c3 b8 b5 bd 81 d3 36 be 18 43 ac bd ea b0 54 3d
       -0.08873131 -0.1785412 -0.084112346 0.05192653
000030 79 90 45 3d 86 d3 9e bd 2f a2 a7 bd a4 71 40 3e
       0.048233483 -0.07755189 -0.08185231 0.1879335
000040 c4 54 b2 be 75 36 62 bc 62 bf 09 be 72 9e 80 be
       -0.34830296 -0.013806929 -0.13451913 -0.25120884
000050 4f dd e9 3c b0 d5 28 3e c1 3b 14 be e0 7f 97 bd
       0.028547911 0.16487765 -0.1447592 -0.07397437
000060 a1 a9 ae 3d 41 09 93 3b 38 48 b7 bc e1 25 36 be
       0.08528448 0.004487187 -0.022373304 -0.17787887
000070 e2 a9 32 bd 52 08 83 3c 4e 13 38 be 7c 5b da bc
       -0.043619044 0.015995178 -0.17976114 -0.026654951
000080 e6 24 62 be c0 42 32 be e7 d6 97 3d d1 eb 7d bd
       -0.22084388 -0.17408276 0.07414036 -0.06199247
000090 41 b1 0c 3b 9a b1 10 be 46 83 a6 bd ac 9c 19 3c
       0.0021467956 -0.1413025 -0.08130507 0.009375732
0000a0 38 01 24 be 46 62 c3 bd 74 5e 8f 3d 18 26 bb 3d
       -0.1601609 -0.095402285 0.070004374 0.09138125
0000b0 89 3c 10 3d 94 da 3b 80 81 03 23 00 06 c9 3f 80
       0.03521398 -5.496705e-39 3.2155e-39 -5.85775e-39
0000c0 81 4d 2d 80 e5 6c 2f 80 91 48 17 00 11 c5 05 00
       -4.1604e-39 -4.355332e-39 2.138248e-39 5.29872e-40
0000d0 ee 55 14 80 fc e8 41 80 0e 19 2a 00 34 6d 05 80
       -1.867536e-39 -6.052886e-39 3.866079e-39 -4.98352e-40
0000e0 c0 2b 23 80 ed ac 1e 80 bf 1d 46 80 50 a8 42 00
       -3.229937e-39 -2.817099e-39 -6.439156e-39 6.121522e-39
0000f0 67 fa 35 80 ff 98 1a 80 e3 11 3c 80 18 da 84 bd
       -4.957109e-39 -2.442608e-39 -5.516546e-39 -0.064869106
000100 a8 e0 95 bc a2 c9 56 3d 00 bb 8f bd 61 d9 25 3e
       -0.018295601 0.052438386 -0.07018089 0.16196205
000110 af 59 1e 3d fb c2 ee 3d a7 87 50 be 59 72 4a be
       0.038659748 0.11658283 -0.20364247 -0.19770183
000120 2f cb 21 be ed 5b 24 bc f7 cb b0 bc fe e1 c3 3d
       -0.15800165 -0.010031682 -0.021581633 0.09564589
000130 c2 c0 94 3d 32 07 47 3d 9d 14 08 bb 15 16 6e 3d
       0.07263328 0.048590846 -0.002076424 0.058126528
000140 ef 47 b5 bd c0 d9 b0 bd 4d 8e 91 bc f8 c8 23 3d
       -0.08851611 -0.086352825 -0.01776805 0.03998658
000150 7d 6b ee bd 3f 4d e1 bd 41 c9 39 3a 11 1c 13 3d
       -0.116415955 -0.11001062 0.0007087179 0.035915438
000160 ed 31 13 3e 7f 9c 1f 3d 95 34 8e bd 42 cd af bc
       0.14374514 0.038967606 -0.06943623 -0.02146018
000170 81 2d 77 be 2b 7a cc bd f8 34 c6 bd 0f 24 04 be
       -0.24138452 -0.09984239 -0.09678072 -0.1290438
000180 bf aa 36 3e 45 9d dd be 92 45 51 3d 63 99 39 3e
       0.17838572 -0.4328405 0.051091738 0.18124919
000190 b7 4a b0 3e a3 dd 03 3e 30 a5 29 3e 75 0d 1e be
       0.34432003 0.12877516 0.1656692 -0.15434821
0001a0 51 20 c0 3d 12 69 d1 3c bd f9 a7 ba 33 31 2a 3e
       0.09381164 0.025562797 -0.0012815517 0.1662033
0001b0 b8 1a 56 be 15 66 35 3e 41 70 90 bd 40 cf bd 3c
       -0.2090863 0.17714722 -0.07052661 0.023170114
0001c0 a9 6d 4d 3e f8 33 b8 bc 53 a4 a0 be ed f9 99 bc
       0.20061363 -0.022485718 -0.3137537 -0.018795932
0001d0 b3 ef 29 3e e1 00 ae bd 2c 4c ad bd b3 32 22 be
       0.16595344 -0.084962614 -0.08461794 -0.15839653
0001e0 15 0c 89 3c d2 78 2a 3d f1 5c c9 3b 0d 1f 90 be
       0.016729394 0.04161913 0.0061451127 -0.2814869
0001f0 76 06 69 be 4c c8 55 be 0b 5e 4f be 0c 5d 46 be
       -0.22756371 -0.20877188 -0.20250718 -0.19371432
000200 90 9d ce 3c 76 b8 c7 bd 81 92 a6 bd 38 79 16 3d
       0.025221616 -0.0975198 -0.08133412 0.036736697
000210 1b 9c 05 be 23 84 3b 3b 81 d4 7e bc cd de ca bd
       -0.13047831 0.0028612695 -0.015553595 -0.09905777
000220 20 95 9d 3c 1b f9 96 3d f2 e6 81 3c ca 18 44 bd
       0.019236147 0.07371732 0.015857194 -0.047875203
000230 a6 10 d4 3d 97 1f a7 bd 5b 82 17 be ed 8f cf bd
       0.10354738 -0.08160322 -0.1479582 -0.101348735
000240 4b d4 93 bd 84 02 30 3e ba 7a 98 3e 04 58 b6 bd
       -0.07218226 0.1718846 0.29781133 -0.089035064
000250 fd d4 54 3e d4 2d 36 be ce 9d 0b 3d 05 22 d1 3d
       0.20784374 -0.1779092 0.03408604 0.10211567
000260 85 97 aa 3d 92 16 b4 3d 3b 05 a7 be 12 8c 3a 3d
       0.08329681 0.087933674 -0.32621178 0.045543738
000270 5a b7 99 be 14 fb 96 3b 22 ec 10 be 4b 06 8c bd
       -0.300227 0.0046075676 -0.14152578 -0.06837138
000280 c4 0f 28 3e 3b 6f 7e bd cc 8a 90 3d 0f 8e d0 3d
       0.16412264 -0.062117796 0.070577234 0.101833455
000290 3b f7 6b 3d 70 d7 f1 b9 0e c3 c6 bd 50 71 07 bd
       0.057608824 -0.00046127615 -0.097051725 -0.033067048
0002a0 4b e7 cc 3c 64 a9 2d be 5f 2d 3e bc e0 ec 34 3d
       0.025012633 -0.16959149 -0.011607497 0.044171214
0002b0 0d 50 35 3d c6 f4 fd 3c 36 c1 11 3d 38 a8 00 3d
       0.044265795 0.031000506 0.03558465 0.031410426
0002c0 64 6b dd 3c 81 b3 ce 3c fe 08 b5 3c e7 0f 99 3c
       0.027028747 0.025232079 0.022099014 0.01868434
0002d0 96 4f b8 bc 61 08 a9 be f7 18 5c 3c 36 b1 8b bd
       -0.022498887 -0.33014205 0.013433686 -0.0682091
0002e0 c3 64 d8 3a e4 cf 35 3e 9b ce 4e 3d 68 8e 0d 3e
       0.0016509522 0.17755085 0.050490003 0.13823855
0002f0 19 39 07 be f9 bb 0b be 8f 3e 96 bd 94 da ea 3d
       -0.13205375 -0.13645925 -0.07336151 0.11467472
000300 d4 75 0b 3d c4 08 d8 bd 7c ae b8 bd b8 f9 75 3e
       0.034047917 -0.10548547 -0.09017655 0.24021041
000310 f1 2f 94 bb 11 f7 d4 bd 11 4e cf bd 72 9f 7a 3e
       -0.0045223166 -0.10398687 -0.10122312 0.24474886
000320 98 e6 4b bd 3b 98 aa 3e 33 9e 83 be 1d dd 4b be
       -0.04978046 0.33319268 -0.25706634 -0.19908567
000330 76 79 4d be c7 49 19 bd e4 e5 94 3d f8 69 cf 37
       -0.20065865 -0.037423875 0.07270411 2.4725668e-05
000340 1c 23 8b bd d8 08 88 be c5 55 fd 3c b3 6a e3 bd
       -0.06793806 -0.26569247 0.030924687 -0.11104336
000350 e8 e2 46 be 2b 29 19 3d d1 45 13 bc d1 88 45 be
       -0.19422495 0.037392776 -0.0089888135 -0.19290473
000360 4e 55 31 3c db f5 10 3e 8d d1 c7 3d 6c 94 d6 3d
       0.010823561 0.14156286 0.097567655 0.10477528
000370 3e ca 55 be 9d e5 52 be ab 8b b0 3a 6f c1 60 3e
       -0.2087793 -0.20595403 0.0013469359 0.21948789
000380 52 e1 92 bd 38 d5 9c 3d 12 d0 e4 3c c5 87 c1 bd
       -0.07171883 0.07657856 0.027931247 -0.09449724
000390 5a b6 70 be 51 4e 26 be f6 70 b1 3d 0c 3b 84 3d
       -0.23507062 -0.16240813 0.08664124 0.06456575
0003a0 6e 76 38 be 98 91 49 be 1c ce 88 bd 68 4f 96 bd
       -0.18013927 -0.19684446 -0.06679937 -0.07339364
0003b0 8a 84 7f 3c ed a7 e1 39 6c 62 97 3d 6e 16 63 3e
       0.015595565 0.0004304046 0.07391819 0.22176525
0003c0 52 2f 34 3e ca 37 18 3e d9 4b 08 bd 00 e6 dc bd
       0.17596176 0.14865032 -0.03327546 -0.107860565
0003d0 75 b8 8e bc 55 45 56 be 78 a4 d8 bd a4 d5 22 be
       -0.01742194 -0.20924886 -0.10578245 -0.1590181
0003e0 89 33 20 3e 5d d0 55 bb d8 22 76 be ac 23 cf be
       0.15644659 -0.0032625415 -0.2403673 -0.40456903
0003f0 54 ec 83 3e cb 69 a8 bd bc 00 5b bd f7 97 79 3e
       0.25766242 -0.082233034 -0.053467497 0.24374376

conv3.bias f4 [128]
000000 83 60 38 be c8 25 dd ba 96 32 a5 bd 5a 8d b2 a7
       -0.18005566 -0.0016872222 -0.08066289 -4.955818e-15
000010 42 f9 82 bb ee 46 0b bd 3e 3b 78 3d f6 cf 44 3e
       -0.003996999 -0.03400319 0.060603373 0.19219956
000020 f9 4c 7e be 79 e0 0d be 1f 4e 0b be d5 45 ae bd
       -0.2483405 -0.13855161 -0.1360402 -0.08509413
000030 ba 7b f2 bc f0 6e 5f be 07 63 5e 3d b7 79 ee bc
       -0.029600013 -0.21819663 0.05429366 -0.029110773
000040 9e 00 36 bd 34 2b 0f be 7f 20 65 bc bb 30 ba bd
       -0.044434182 -0.13981324 -0.013984798 -0.09091326
000050 f8 61 d8 bd 00 9b 5b ad dd f6 9d bd 03 e2 3f be
       -0.10565561 -1.2483126e-11 -0.07713101 -0.1873856
000060 ca 83 f8 9b c8 61 1f be 4c 85 14 3c 70 87 f4 3d
       -4.1113325e-22 -0.15564644 0.009064984 0.11939895
000070 9d be 0e be 21 63 10 ac 5f 05 11 3e fa 90 15 bc
       -0.139399 -2.0518658e-12 0.14162205 -0.009128803
000080 ad 3c 00 be 55 79 cf bd 47 7e 20 be ef ef 54 be
       -0.12523146 -0.10130564 -0.15673171 -0.20794652
000090 c5 a5 53 3d da 2e 89 bd 00 d2 49 bd 4c f4 09 3e
       0.051671762 -0.06698389 -0.049272537 0.13472098
0000a0 e8 9b 7c bd e0 b2 da 3d fc e4 af bd 8e 0e 85 bd
       -0.06167212 0.10678649 -0.08588597 -0.06496917
0000b0 40 73 22 be b8 a7 37 3f 35 dd d6 bd 13 40 6c 3e
       -0.15864277 0.71740294 -0.10491411 0.23071317
0000c0 5e 21 c9 a5 5b 86 68 3d 06 49 93 bd 6a a9 82 bd
       -3.4890552e-16 0.056768756 -0.071916625 -0.063799694
0000d0 f2 96 eb bd 5b c6 c2 3c e4 f3 97 bd aa ec c6 3d
       -0.115034 0.023776224 -0.07419565 0.09713109
0000e0 ae c2 a1 bd 0c 54 ad bc ff 7c fe bd c8 bd 27 b1
       -0.0789846 -0.02115824 -0.12426185 -2.4409577e-09
0000f0 7d 86 cb bd 4e 0d 43 be 8c 4d da 3e 56 e5 b5 a9
       -0.09937761 -0.19048044 0.4263729 -8.077798e-14
000100 cf 28 85 a2 a7 c8 0f be 50 2e f3 bd 36 20 44 3d
       -3.609293e-18 -0.14041387 -0.11874068 0.04788228
000110 3f bd ad bd f6 57 0f 3f 00 55 73 3d cd d0 e7 3c
       -0.084833615 0.5599359 0.059407234 0.028297806
000120 8b 15 3e 3d 4b 7f 65 b4 32 a6 a6 bc d6 f4 4f 98
       0.046407264 -2.1373596e-07 -0.02034292 -2.6877733e-24
000130 6e 9a 0b be b2 ee 4e b0 a9 29 07 be 42 9e 59 be
       -0.13633129 -7.528157e-10 -0.13199486 -0.21251777
000140 d0 a0 e0 3d 5e 69 c8 90 00 ef ac bd 3a b5 a2 89
       0.109681726 -7.9048434e-29 -0.08444023 -3.9170506e-33
000150 5e 84 3b be d6 8b be bd 14 80 9f bc 39 5f 04 a7
       -0.18312213 -0.09304015 -0.019470252 -1.83703e-15
000160 df f5 29 bd c1 57 ec bd 64 94 09 bd 0c d7 23 be
       -0.041494247 -0.11540175 -0.033588782 -0.16000003
000170 e0 62 d7 bd 01 60 24 a4 51 78 08 3c d5 d4 82 be
       -0.10516906 -3.564315e-17 0.008329467 -0.25553003
000180 fa 86 fc bd 3b 1c 9a bd 77 9c 88 3c 61 09 eb 3c
       -0.12330432 -0.07524916 0.01667617 0.028690996
000190 4a ac a2 bd 4f 0d 1a ae cd e8 98 bd 6a 85 8f 3c
       -0.07943018 -3.5027366e-11 -0.07466278 0.017519671
0001a0 e2 eb 15 88 b6 cb 7d bd 9c 50 38 ad 3b 6d 0a bd
       -4.5115335e-34 -0.061961852 -1.0477088e-11 -0.033795577
0001b0 22 9d 2d 3e 87 0c ae 3d b4 22 17 be c4 14 3a 3d
       0.16954473 0.08498483 -0.14759332 0.04542996
0001c0 3a 0e 0c be cc 69 bc a6 3f 76 29 be 50 eb 97 bd
       -0.13677302 -1.3073797e-15 -0.16549014 -0.07417929
0001d0 53 85 f4 3d c4 db ba bd bd 36 1e be dd 6f ed bc
       0.11939492 -0.09123948 -0.15450568 -0.028984005
0001e0 f3 55 0f 3d c0 00 68 3e 0a 0b 3c 3c a2 1d 6f be
       0.034994077 0.22656536 0.011477241 -0.23351148
0001f0 34 d1 05 be d8 a7 1b bd ef 97 63 b2 47 23 eb bb
       -0.13068086 -0.038001865 -1.3247685e-08 -0.0071758362

act_conv1.weight f4 [4, 128, 1, 1]
000000 0a ac e6 9e 37 27 ba b9 af d8 c3 9f 0f 6f 4c 80
       -2.4423351e-20 -0.00035505902 -8.2944185e-20 -7.019338e-39
000010 64 96 52 b8 99 6c 37 00 1b 7a f4 b8 3e ef 14 bc
       -5.0207964e-05 5.08991e-39 -0.000116575706 -0.009090243
000020 9b d3 80 b6 86 5d 23 00 01 78 2d b8 f2 a2 b8 ba
       -3.8393314e-06 3.247792e-39 -4.1358177e-05 -0.0014086647
000030 81 ae d9 b7 70 c3 6f b8 03 26 7f bb f0 2c d1 b8
       -2.5949676e-05 -5.7164056e-05 -0.003893257 -9.974267e-05
000040 db 3c da ac 40 73 cc 97 e5 f7 e2 b5 74 45 83 b3
       -6.202689e-12 -1.3212284e-24 -1.6910459e-06 -6.112796e-08
000050 46 8d 14 00 e0 dc 41 00 e6 b6 d0 b0 ed 41 da b7
       1.887389e-39 6.048542e-39 -1.5185975e-09 -2.6018324e-05
000060 ba ad 2a 00 df f1 cd a0 90 8f a1 bc de 52 13 ba
       3.919412e-39 -3.4888408e-19 -0.019721776 -0.0005619953
000070 44 d4 23 b7 60 69 16 80 39 40 72 bc f6 09 34 00
       -9.764979e-06 -2.058182e-39 -0.01478582 4.779019e-39
000080 32 cb 8a b7 2d b0 e8 ad 9b 5a dd b7 1e 19 34 a8
       -1.6545502e-05 -2.6453584e-11 -2.6387444e-05 -9.997454e-15
000090 44 46 90 bb 2c 7f 1e b6 1e 7f 3e b8 06 70 d5 b7
       -0.0044029076 -2.3617858e-06 -4.5417917e-05 -2.5443744e-05
0000a0 72 af 3a 80 32 06 60 bb 8e 4d 1e 80 87 41 93 a4
       -5.389397e-39 -0.003418338 -2.782886e-39 -6.3862095e-17
0000b0 54 52 ed b8 17 29 ad bc 4f bf 2a 80 b0 bd c1 bb
       -0.000113163755 -0.021137757 -3.92572e-39 -0.005912505
0000c0 3c 49 32 00 ac 7f de bb c2 59 46 bb 4e 35 1e 80
       4.618046e-39 -0.006790122 -0.0030265902 -2.774187e-39
0000d0 ae eb fa b8 80 a8 ff ba e2 05 15 b4 4e ff b4 b7
       -0.00011964828 -0.0019505173 -1.3878847e-07 -2.1576558e-05
0000e0 22 91 db a8 a9 8d 2d ba 60 5b 0e b2 0a f4 40 00
       -2.4376826e-14 -0.0006620535 -8.286264e-09 5.965016e-39
0000f0 e2 ab 63 ba b9 67 81 b9 81 ea 83 bc 8b df 2f 80
       -0.00086849753 -0.00024682077 -0.016103031 -4.39646e-39
000100 99 25 3f 00 44 ba 0a b4 ad 1d 65 ba 80 88 54 ba
       5.799124e-39 -1.2920015e-07 -0.0008740079 -0.0008107498
000110 0f aa 34 b9 7e 9b 9e bc 9e 64 a1 ba 16 00 a7 b9
       -0.0001722949 -0.019361254 -0.0012313311 -0.00031852786
000120 75 90 2d 80 71 f7 3a 80 84 14 c5 ba 0c 46 13 00
       -4.184419e-39 -5.415224e-39 -0.0015036021 1.770003e-39
000130 62 ff 2e b7 e9 6d 1e 80 be af 9d ba 3a 05 e1 af
       -1.0430669e-05 -2.794493e-39 -0.0012030525 -4.0930975e-10
000140 4b 77 8d ba 50 dd 3f 80 f0 72 28 80 62 2a 51 00
       -0.0010792998 -5.865028e-39 -3.714652e-39 7.453879e-39
000150 95 0b 83 b9 12 af 93 ba 4a a3 c3 b1 c9 19 2c 80
       -0.00024994896 -0.0011267385 -5.6938108e-09 -4.050012e-39
000160 cb 62 f0 a8 d9 a2 85 bc 84 57 3a ab a5 a0 5a b3
       -2.6688197e-14 -0.016313003 -6.6201927e-13 -5.0903186e-08
000170 0f 6a 82 b8 8a 0e 39 80 06 89 b3 b8 8c c5 4b b8
       -6.218638e-05 -5.239839e-39 -8.560908e-05 -4.858295e-05
000180 8c 76 4e 9c 4c 6c 16 b7 d4 68 0f ba 76 4e 59 bb
       -6.83129e-22 -8.965912e-06 -0.00054706377 -0.0033158339
000190 57 94 f9 b6 c7 96 18 00 12 49 cd 81 ea 72 7b bb
       -7.4380473e-06 2.25814e-39 -7.540996e-38 -0.0038368055
0001a0 5a 67 35 80 7e 77 79 ba fc 54 0d 00 d5 6f 96 b8
       -4.904357e-39 -0.0009516402 1.224348e-39 -7.173388e-05
0001b0 19 cc 82 ba 55 8c 1e bb 14 92 4d b3 c0 34 39 b6
       -0.0009979039 -0.002419253 -4.786314e-08 -2.7597853e-06
0001c0 39 ed 2c b5 94 c5 1c 00 83 04 87 a7 cc f2 57 ba
       -6.44202e-07 2.642272e-39 -3.747492e-15 -0.00082377787
0001d0 e6 e3 0e bb 9e 08 3e 00 c7 fe 0e b9 e3 e7 31 bb
       -0.0021803319 5.696892e-39 -0.00013637087 -0.0027146272
0001e0 ad 4c 59 ab 34 1c 60 b9 12 99 f1 ba fa e8 0b b4
       -7.7200296e-13 -0.00021372811 -0.0018432459 -1.303014e-07
0001f0 1a eb 06 bb 7c 7e 0f 00 94 1a 0d 00 b7 0b 1e 00
       -0.0020586909 1.422906e-39 1.203396e-39 2.759267e-39
000200 73 d9 e4 38 15 88 6c b8 4c 54 2f b7 e9 23 4d 00
       0.0001091239 -5.639352e-05 -1.045044e-05 7.084215e-39
000210 c8 55 58 a4 b7 e6 10 00 5b a4 e2 b9 09 81 df b7
       -4.6910193e-17 1.552133e-39 -0.00043228533 -2.6643758e-05
000220 d6 cc 0d 00 2f 36 25 80 58 ba da b4 40 1f 1a b4
       1.267343e-39 -3.417351e-39 -4.0741247e-07 -1.4353736e-07
000230 c0 0a bf b9 97 22 1c 30 33 e3 04 00 17 de da 36
       -0.00036438368 5.6801625e-10 4.48846e-40 6.522761e-06
000240 df c4 06 b9 0e ae a1 37 30 5e 07 b3 1c 7b 92 30
       -0.00012852576 1.9273746e-05 -3.15178e-08 1.0657888e-09
000250 3f 8f 0b 00 84 2c 49 80 9e 86 93 b9 40 16 e1 b7
       1.061577e-39 -6.71996e-39 -0.00028138323 -2.6832451e-05
000260 2b 8a 19 83 95 b8 05 b7 2a 6a 0b bc 6b 26 62 b5
       -4.512127e-37 -7.970394e-06 -0.008509198 -8.4247466e-07
000270 17 fb c8 37 a0 60 03 00 02 a8 8e ba 72 d1 40 80
       2.395878e-05 3.10169e-40 -0.001088381 -5.952607e-39
000280 0e c5 2b 00 8a f0 60 38 e5 fb 2e 80 8e 43 1b 2e
       4.019616e-39 5.362978e-05 -4.314796e-39 3.530292e-11
000290 4b b7 15 80 c7 ca 4f b5 68 7b 7c b9 b1 22 eb ac
       -1.994299e-39 -7.740859e-07 -0.00024078565 -6.6829532e-12
0002a0 73 63 3e 80 8a 5c a4 b4 4b fd 0b 80 04 4f 9f b9
       -5.729476e-39 -3.0614711e-07 -1.101055e-39 -0.00030385714
0002b0 2c 25 94 ba ed df 14 33 a9 11 27 80 98 4a 6f b4
       -0.0011302582 3.4662595e-08 -3.58792e-39 -2.2285747e-07
0002c0 45 43 38 00 cd 5b 1c b6 c5 52 1a b9 40 16 4f 80
       5.16692e-39 -2.3299247e-06 -0.00014717419 -7.262986e-39
0002d0 68 3e 49 00 44 62 13 00 2e 9e 63 b3 f1 3d 41 b6
       6.726378e-39 1.780125e-39 -5.299642e-08 -2.8795296e-06
0002e0 c0 9a 6c ba 72 16 38 ae 97 e0 35 b8 30 d9 32 00
       -0.0009025745 -4.185669e-11 -4.336293e-05 4.669687e-39
0002f0 ca dc 2f 80 2d 1b 9a 34 09 bd 0a 80 fd fc 14 00
       -4.395473e-39 2.8704508e-07 -9.86168e-40 1.927465e-39
000300 de a7 28 80 9a 80 06 35 db 24 9f b7 5f 29 39 ba
       -3.733639e-39 5.010603e-07 -1.897144e-05 -0.0007063355
000310 f2 b2 2f 80 b0 3f ae b7 eb fc 7d 80 2d cf 1a b1
       -4.380462e-39 -2.0772073e-05 -1.1570167e-38 -2.2527715e-09
000320 42 85 33 80 de f1 77 35 4b cf 24 80 a2 73 3f 80
       -4.731414e-39 9.2366633e-07 -3.38044e-39 -5.827117e-39
000330 ec fe 39 b4 8a 45 14 80 44 b5 09 00 d0 9a b5 39
       -1.7322208e-07 -1.861656e-39 8.91545e-40 0.00034638355
000340 3a 55 12 00 a0 b9 00 00 8b c5 04 00 02 97 36 00
       1.683612e-39 6.659e-41 4.38207e-40 5.013288e-39
000350 9e b0 80 ba 5c 6d 0c b8 dc 21 3d 00 93 57 08 00
       -0.0009818261 -3.348045e-05 5.614112e-39 7.661e-40
000360 5a 1c d7 b6 2d 62 eb b9 a5 7c 83 a8 1b 15 a2 82
       -6.4108e-06 -0.0004489584 -1.4597978e-14 -2.3815875e-37
000370 0c 70 50 b1 9f 44 12 00 30 24 2e 39 69 5c 08 00
       -3.0331675e-09 1.677656e-39 0.00016607414 7.67834e-40
000380 8e 31 62 38 34 35 d1 36 cc e6 d3 b1 2b 9f a8 b6
       5.392875e-05 6.234879e-06 -6.167147e-09 -5.0253198e-06
000390 5d d5 2d b4 67 0b 0c 00 73 13 20 80 f1 9c 2e b7
       -1.6189502e-07 1.106116e-39 -2.945713e-39 -1.0407749e-05
0003a0 f3 a7 00 80 9b a6 4d ae 8f 44 c9 9a 65 07 6d b7
       -6.0249e-41 -4.675958e-11 -8.3242414e-23 -1.41280225e-05
0003b0 e3 03 4f 99 7b 88 26 80 e5 e9 a4 37 e2 56 80 b9
       -1.0702434e-23 -3.538709e-39 1.965924e-05 -0.00024478795
0003c0 9f 69 58 13 f0 ad 1d 00 fe 33 55 37 b2 c5 3b 90
       2.7315108e-27 2.725626e-39 1.2707895e-05 -3.7031546e-29
0003d0 31 25 3c 00 44 75 0d 00 83 59 4e b9 92 48 62 b5
       5.523472e-39 1.235928e-39 -0.00019679037 -8.4297164e-07
0003e0 08 01 25 39 b2 85 23 00 ab ee a4 b3 1c 96 55 b6
       0.0001573601 3.262203e-39 -7.6802586e-08 -3.1826848e-06
0003f0 20 c2 80 b6 af 94 0f 80 6e b6 12 80 55 6a 0e 00
       -3.8372964e-06 -1.43087e-39 -1.718482e-39 1.323842e-39

act_conv1.bias f4 [4]
000000 d5 c4 50 bc 74 a9 00 bd 69 e2 0a 3f 35 2c d4 3e
       -0.012742241 -0.031411603 0.54251724 0.41439977

act_fc1.weight f4 [36, 144]
000000 d7 11 4b 00 70 87 0f 8f ec dd 84 91 a7 9c 2c 9c
       6.894062e-39 -7.076529e-30 -2.0962698e-28 -5.7112495e-22
000010 d2 6e 4d 98 81 f0 0e 80 83 87 df 91 dd 4c b5 9a
       -2.6551579e-24 -1.371973e-39 -3.5266712e-28 -7.4984025e-23
000020 20 28 29 a1 4f cc d6 29 94 19 50 25 2a d1 9a 98
       -5.731253e-19 9.538951e-14 1.804979e-16 -4.001927e-24
000030 dc 78 e8 93 f4 71 54 9c cb 74 07 a9 ee 2c a4 aa
       -5.868421e-27 -7.0292197e-22 -3.0077323e-14 -2.9163428e-13
000040 2c dc d0 a8 19 aa bf 9c e7 69 87 96 28 b6 a9 a1
       -2.3188123e-14 -1.2683289e-21 -2.187726e-25 -1.1500102e-18
000050 7c 88 a8 aa 39 4e 0b a9 b6 02 17 a6 81 54 ee 9e
       -2.99375e-13 -3.0932047e-14 -5.2392323e-16 -2.523418e-20
000060 2c a2 e4 92 d6 1d 0d a8 e2 c5 da a6 4b 22 25 ac
       -1.4428801e-27 -7.833542e-15 -1.5180425e-15 -2.3466947e-12
000070 3b 9f 96 a5 74 c0 96 98 72 86 7a 82 c4 11 d5 90
       -2.612875e-16 -3.896842e-24 -1.8405683e-37 -8.404106e-29
000080 ee 1b dd a1 55 81 11 a4 92 25 1c 9e c6 22 52 90
       -1.4982935e-18 -3.155141e-17 -8.2663406e-21 -4.1441986e-29
000090 b6 b8 45 80 3b f3 09 00 1b fc 24 00 0f 5b 21 00
       -6.402911e-39 9.13774e-40 3.396516e-39 3.063237e-39
0000a0 e3 b9 27 80 14 a4 0b 00 75 0a 36 80 4c 39 39 80
       -3.648268e-39 1.06905e-39 -4.962868e-39 -5.255178e-39
0000b0 20 4d 4a 00 12 3e 2a 00 b4 ae 04 00 e0 55 1b 00
       6.823494e-39 3.879357e-39 4.30014e-40 2.510365e-39
0000c0 f6 81 27 80 f9 52 45 00 48 ac 05 80 f9 7e 0b 00
       -3.628206e-39 6.366414e-39 -5.2098e-40 1.05574e-39
0000d0 c7 33 12 00 5a a0 00 80 2f d0 3a 80 c1 d9 08 00
       1.671613e-39 -5.7523e-41 -5.401141e-39 8.128e-40
0000e0 72 3e 41 80 ce ce 11 00 80 90 2f 80 89 cd 13 80
       -5.991708e-39 1.635391e-39 -4.368105e-39 -1.818607e-39
0000f0 55 64 14 80 9b 7b 24 80 da 26 49 80 c8 20 3c 80
       -1.872702e-39 -3.350419e-39 -6.717929e-39 -5.52189e-39
000100 69 b8 2b 00 6b 11 0e 00 7f 65 45 00 7d 44 34 00
       4.01508e-39 1.291945e-39 6.373059e-39 4.800015e-39
000110 96 42 19 00 e9 59 50 00 e0 95 39 00 c2 77 2f 00
       2.319774e-39 7.379093e-39 5.288388e-39 4.35923e-39
000120 7c 72 dd 3c 0e c7 90 3c 73 9f 3a 3d 50 65 e8 bd
       0.02703213 0.017673042 0.04556222 -0.11347449
000130 a7 85 91 3d e2 41 e9 3c a1 62 d6 3d df 39 48 bd
       0.0710557 0.028473798 0.10468031 -0.048883315
000140 71 21 c9 3c 3a ba 53 3d 50 84 a9 bd c7 ec 6f bd
       0.024552079 0.05169127 -0.0827719 -0.058575418
000150 44 c3 88 3e f6 d6 e3 3d 97 73 d9 bd 14 57 08 3e
       0.26711476 0.11124985 -0.1061775 0.13314468
000160 34 53 b7 3c 61 6a 80 3d 63 d5 0f 3e ca fd 00 be
       0.022378542 0.0627029 0.14046244 -0.12596813
000170 8e e2 15 3e ff 53 ec 3c 81 10 22 bd 15 c3 97 bd
       0.14637205 0.028848646 -0.03956652 -0.07410256
000180 ba 6d 61 bf d5 df a3 3e d6 df a7 3d 4c f2 08 3e
       -0.88058054 0.32006708 0.0819699 0.13373679
000190 59 24 fc bd d7 98 db 3c 61 14 75 bf 58 4f f1 bc
       -0.1231162 0.026806278 -0.9573422 -0.02945678
0001a0 98 c3 d9 3d 47 32 01 3d e0 a4 51 3d c8 c1 9a bd
       0.1063301 0.03154209 0.051182628 -0.07556492
0001b0 cb e1 e6 bd 32 d9 80 bd ab 07 ed bd d5 ef a9 bc
       -0.11273535 -0.06291427 -0.11573728 -0.020744244
0001c0 c9 fc 7a be f9 c1 a6 bc a9 de 22 be f8 9c 0c 3d
       -0.24510492 -0.020356165 -0.1590525 0.034329385
0001d0 bb 60 65 bd 17 ab 00 be 7e df 12 3d 25 c0 ea bd
       -0.056000452 -0.12565266 0.03585767 -0.1146243
0001e0 58 4b 58 bc 4a 2e 29 be 16 5b 89 3c 8c ed 9d bd
       -0.013201557 -0.16521564 0.016767066 -0.07711324
0001f0 a2 49 f5 bd dc 6b 2a be 0b 8e f2 be a7 86 de bd
       -0.11976935 -0.16642708 -0.47373995 -0.10865527
000200 0c 92 ba be 63 22 76 3d a6 19 9a bd 80 02 37 bb
       -0.3643955 0.060091387 -0.07524423 -0.0027925074
000210 4c 78 2c 3e 58 80 85 be 57 75 e6 bd bd 99 9f 3c
       0.16842765 -0.2607448 -0.112528495 0.019482488
000220 4a 5e d0 3d 18 0e 49 bd 45 44 50 bf 2d 99 a2 3e
       0.10174234 -0.049085706 -0.8135417 0.3175749
000230 93 f9 83 3e b1 a7 54 3d c2 4f ec bd 6a bd b9 bd
       0.25776348 0.051917735 -0.1153865 -0.09069331
000240 88 41 31 00 be e0 3b 00 7b ec 17 80 7e 17 40 00
       4.523447e-39 5.498917e-39 -2.19705e-39 5.885899e-39
000250 ed 6b 14 80 50 2a 2a 00 6f 41 19 00 b9 45 2b 00
       -1.875426e-39 3.87227e-39 2.31936e-39 3.973938e-39
000260 ba 49 11 00 57 45 2d 00 c5 b0 3d 03 3c c5 29 00
       1.587652e-39 4.157472e-39 5.574503e-37 3.83601e-39
000270 66 00 1a 00 e4 6b 03 00 dc 95 97 00 d0 7d a4 89
       2.387866e-39 3.1421e-40 1.392092e-38 -3.9599877e-33
000280 71 f1 1d 80 7c 6c 16 00 f8 5c 20 00 05 88 1d 80
       -2.749842e-39 2.059298e-39 2.972087e-39 -2.712024e-39
000290 71 ad 24 80 2b 99 3e 00 03 b0 45 80 4a 8a 0b 00
       -3.368297e-39 5.748747e-39 -6.39979e-39 1.059799e-39
0002a0 cd 71 46 00 f2 ef 2f 00 08 e3 08 80 33 ca 2f 00
       6.469309e-39 4.402344e-39 -8.16127e-40 4.388804e-39
0002b0 45 13 39 80 54 0a 31 80 46 0f 2b 00 af f9 05 80
       -5.241536e-39 -4.503644e-39 3.954405e-39 -5.48747e-40
0002c0 4b b0 10 00 61 56 0b 00 25 d0 22 80 3b 5e 1a 00
       1.53261e-39 1.041177e-39 -3.197075e-39 2.421526e-39
0002d0 58 c9 17 80 08 87 3c 80 4a b7 44 00 dc 28 16 80
       -2.184445e-39 -5.55857e-39 6.310565e-39 -2.035038e-39
0002e0 5d 5e 0f 00 3e 62 09 80 ea 8b 0a 80 d0 02 08 00
       1.411384e-39 -8.61762e-40 -9.68547e-40 7.35693e-40
0002f0 e3 1d 28 80 b7 6a 25 00 73 a5 30 80 ee 0f 4e 80
       -3.684141e-39 3.436195e-39 -4.467456e-39 -7.168883e-39
000300 d3 27 28 00 90 9a 31 80 27 4b 1f 00 5d 39 08 80
       3.687706e-39 -4.555386e-39 2.87386e-39 -7.55262e-40
000310 21 74 51 00 4e 8c 38 80 5b 72 10 00 28 e3 b4 0b
       7.480334e-39 -5.19312e-39 1.510391e-39 6.9675265e-32
000320 e6 90 39 80 65 54 0c 00 88 21 1c 00 85 a7 39 80
       -5.286603e-39 1.132301e-39 2.583423e-39 -5.294718e-39
000330 d7 26 1a 00 a3 45 38 80 7d 95 8a 20 fe 0e 42 00
       2.401656e-39 -5.167769e-39 2.3477032e-19 6.066521e-39
000340 ed dd 0b 80 8e 86 12 80 e4 83 38 00 dd 5e 45 80
       -1.089802e-39 -1.701308e-39 5.190101e-39 -6.37068e-39
000350 c1 02 88 83 ed ac 1b 80 d9 55 10 00 14 66 00 80
       -7.993994e-37 -2.541592e-39 1.500164e-39 -3.6619e-41
000360 fe 6a 1d be 81 ec f1 3c 57 62 b8 3c 5c fd 51 3d
       -0.15372846 0.02953172 0.02250783 0.051267013
000370 6d de 2d bd 67 7a 34 bd 07 fa 6d bc 80 21 79 3d
       -0.04244845 -0.044062044 -0.014524943 0.060822964
000380 73 27 22 bd 7a f7 f4 bd 06 8e 38 bd 64 8e ac bd
       -0.039588403 -0.11961265 -0.04505732 -0.08425596
000390 8c 68 ae bd 1f c7 59 3e 85 b2 32 3d 8f 78 13 bd
       -0.085160345 0.21267365 0.04362728 -0.036003646
0003a0 90 ac 02 3e 4e fd 15 bd 79 da 2d 3d bd 54 d1 3c
       0.1276114 -0.036618523 0.04244468 0.025553102
0003b0 22 55 e7 bd b4 22 2a 3e 7b a1 64 3c 58 86 19 bd
       -0.11295535 0.166148 0.013954516 -0.037481636
0003c0 f6 b1 63 3e 56 06 58 bf 70 96 73 3e e4 98 0e 3e
       0.22235855 -0.8438467 0.23787856 0.1392551
0003d0 d4 5d b6 3d 05 5f ff bd 79 4e 24 3d 8b 2b 31 bf
       0.08904615 -0.124692954 0.0401139 -0.69207066
0003e0 88 c6 c1 3d 39 a1 dd bc f0 a4 89 3b 04 d1 a8 3d
       0.09461695 -0.027054416 0.0042005703 0.082429916
0003f0 6a d8 c0 bd 2a 01 ea bd da 85 d5 bd a2 9f 58 be
       -0.09416278 -0.11426003 -0.10425921 -0.21154645

act_fc1.bias f4 [36]
000000 20 c4 c8 be 9c 9a c3 bd a0 e9 d0 be 78 fd a1 be
       -0.39212132 -0.09550974 -0.40803242 -0.31638694
000010 6c 92 04 3c 2b b6 a1 be 7c 54 29 bd cc 7f ac bd
       0.00809155 -0.31584296 -0.041340336 -0.08422813
000020 c7 ba 3c 3e eb f3 08 3e b6 65 8d 3c 35 5a 68 3d
       0.18430625 0.13374297 0.017260414 0.056726653
000030 4b c8 a9 be 03 c4 b4 3e 31 3a 24 3e e9 f4 88 3e
       -0.33160624 0.35305795 0.16037823 0.26749352
000040 53 ab 80 3e 19 58 be be b0 02 9d be 78 43 af 3e
       0.2513071 -0.37176588 -0.30666113 0.34231162
000050 f7 2c d5 3d 97 8e 9c 3d 53 aa 8b 3e bc 55 91 be
       0.10408967 0.07644384 0.27278385 -0.28385723
000060 93 65 d0 bc 34 86 31 3e c5 9c a9 3e 42 c5 9a 3e
       -0.02543906 0.1733635 0.33127418 0.3022862
000070 ca c6 a1 3d 7f 32 c7 bd 95 00 c7 be 7c 52 8e bc
       0.07899244 -0.09726428 -0.38867632 -0.017373316
000080 f1 51 aa be 78 89 b4 be dc df ac bb 00 1f f4 be
       -0.3326564 -0.3526113 -0.0052757096 -0.476799
